{"format": "graph-model", "generatedBy": "2.2.0-rc2", "convertedBy": "TensorFlow.js Converter v1.6.0", "userDefinedMetadata": {"signature": {"inputs": {"efficientnet_b2_input:0": {"name": "efficientnet_b2_input:0", "dtype": "DT_FLOAT", "tensorShape": {"dim": [{"size": "-1"}, {"size": "223"}, {"size": "223"}, {"size": "3"}]}}}, "outputs": {"Identity:0": {"name": "Identity:0", "dtype": "DT_FLOAT", "tensorShape": {"dim": [{"size": "-1"}, {"size": "894"}]}}}}}, "modelTopology": {"node": [{"name": "efficientnet_b2_input", "op": "Placeholder", "attr": {"dtype": {"type": "DT_FLOAT"}, "shape": {"shape": {"dim": [{"size": "-1"}, {"size": "223"}, {"size": "223"}, {"size": "3"}]}}}}, {"name": "StatefulPartitionedCall/sequential/efficientnet-b2/stem_conv/Conv2D_weights", "op": "Const", "attr": {"dtype": {"type": "DT_FLOAT"}, "value": {"tensor": {"dtype": "DT_FLOAT", "tensorShape": {"dim": [{"size": "3"}, {"size": "3"}, {"size": "3"}, {"size": "32"}]}}}}}, {"name": "StatefulPartitionedCall/sequential/efficientnet-b2/block6e_dwconv/depthwise_weights", "op": "Const", "attr": {"value": {"tensor": {"dtype": "DT_FLOAT", "tensorShape": {"dim": [{"size": "5"}, {"size": "5"}, {"size": "1248"}, {"size": "1"}]}}}, "dtype": {"type": "DT_FLOAT"}}}, {"name": "StatefulPartitionedCall/sequential/efficientnet-b2/stem_conv/Conv2D_bn_offset", "op": "Const", "attr": {"value": {"tensor": {"dtype": "DT_FLOAT", "tensorShape": {"dim": [{"size": "32"}]}}}, "dtype": {"type": "DT_FLOAT"}}}, {"name": "StatefulPartitionedCall/sequential/efficientnet-b2/block1a_dwconv/depthwise_weights", "op": "Const", "attr": {"value": {"tensor": {"dtype": "DT_FLOAT", "tensorShape": {"dim": [{"size": "3"}, {"size": "3"}, {"size": "32"}, {"size": "1"}]}}}, "dtype": {"type": "DT_FLOAT"}}}, {"name": "StatefulPartitionedCall/sequential/efficientnet-b2/block1a_dwconv/depthwise_bn_offset", "op": "Const", "attr": {"dtype": {"type": "DT_FLOAT"}, "value": {"tensor": {"dtype": "DT_FLOAT", "tensorShape": {"dim": [{"size": "32"}]}}}}}, {"name": "StatefulPartitionedCall/sequential/efficientnet-b2/block6e_dwconv/depthwise_bn_offset", "op": "Const", "attr": {"value": {"tensor": {"dtype": "DT_FLOAT", "tensorShape": {"dim": [{"size": "1248"}]}}}, "dtype": {"type": "DT_FLOAT"}}}, {"name": "StatefulPartitionedCall/sequential/efficientnet-b2/block1a_project_conv/Conv2D_weights", "op": "Const", "attr": {"dtype": {"type": "DT_FLOAT"}, "value": {"tensor": {"dtype": "DT_FLOAT", "tensorShape": {"dim": [{"size": "1"}, {"size": "1"}, {"size": "32"}, {"size": "16"}]}}}}}, {"name": "StatefulPartitionedCall/sequential/efficientnet-b2/block1a_project_conv/Conv2D_bn_offset", "op": "Const", "attr": {"value": {"tensor": {"dtype": "DT_FLOAT", "tensorShape": {"dim": [{"size": "16"}]}}}, "dtype": {"type": "DT_FLOAT"}}}, {"name": "StatefulPartitionedCall/sequential/efficientnet-b2/block1b_dwconv/depthwise_weights", "op": "Const", "attr": {"value": {"tensor": {"dtype": "DT_FLOAT", "tensorShape": {"dim": [{"size": "3"}, {"size": "3"}, {"size": "16"}, {"size": "1"}]}}}, "dtype": {"type": "DT_FLOAT"}}}, {"name": "StatefulPartitionedCall/sequential/efficientnet-b2/block1b_dwconv/depthwise_bn_offset", "op": "Const", "attr": {"dtype": {"type": "DT_FLOAT"}, "value": {"tensor": {"dtype": "DT_FLOAT", "tensorShape": {"dim": [{"size": "16"}]}}}}}, {"name": "StatefulPartitionedCall/sequential/efficientnet-b2/block1b_project_conv/Conv2D_weights", "op": "Const", "attr": {"dtype": {"type": "DT_FLOAT"}, "value": {"tensor": {"dtype": "DT_FLOAT", "tensorShape": {"dim": [{"size": "1"}, {"size": "1"}, {"size": "16"}, {"size": "16"}]}}}}}, {"name": "StatefulPartitionedCall/sequential/efficientnet-b2/block1b_project_conv/Conv2D_bn_offset", "op": "Const", "attr": {"value": {"tensor": {"dtype": "DT_FLOAT", "tensorShape": {"dim": [{"size": "16"}]}}}, "dtype": {"type": "DT_FLOAT"}}}, {"name": "StatefulPartitionedCall/sequential/efficientnet-b2/block2a_expand_conv/Conv2D_weights", "op": "Const", "attr": {"value": {"tensor": {"dtype": "DT_FLOAT", "tensorShape": {"dim": [{"size": "1"}, {"size": "1"}, {"size": "16"}, {"size": "96"}]}}}, "dtype": {"type": "DT_FLOAT"}}}, {"name": "StatefulPartitionedCall/sequential/efficientnet-b2/block2a_expand_conv/Conv2D_bn_offset", "op": "Const", "attr": {"dtype": {"type": "DT_FLOAT"}, "value": {"tensor": {"dtype": "DT_FLOAT", "tensorShape": {"dim": [{"size": "96"}]}}}}}, {"name": "StatefulPartitionedCall/sequential/efficientnet-b2/block2a_dwconv/depthwise_weights", "op": "Const", "attr": {"value": {"tensor": {"dtype": "DT_FLOAT", "tensorShape": {"dim": [{"size": "3"}, {"size": "3"}, {"size": "96"}, {"size": "1"}]}}}, "dtype": {"type": "DT_FLOAT"}}}, {"name": "StatefulPartitionedCall/sequential/efficientnet-b2/block2a_dwconv/depthwise_bn_offset", "op": "Const", "attr": {"value": {"tensor": {"dtype": "DT_FLOAT", "tensorShape": {"dim": [{"size": "96"}]}}}, "dtype": {"type": "DT_FLOAT"}}}, {"name": "StatefulPartitionedCall/sequential/efficientnet-b2/block2a_project_conv/Conv2D_weights", "op": "Const", "attr": {"value": {"tensor": {"dtype": "DT_FLOAT", "tensorShape": {"dim": [{"size": "1"}, {"size": "1"}, {"size": "96"}, {"size": "24"}]}}}, "dtype": {"type": "DT_FLOAT"}}}, {"name": "StatefulPartitionedCall/sequential/efficientnet-b2/block2a_project_conv/Conv2D_bn_offset", "op": "Const", "attr": {"value": {"tensor": {"dtype": "DT_FLOAT", "tensorShape": {"dim": [{"size": "24"}]}}}, "dtype": {"type": "DT_FLOAT"}}}, {"name": "StatefulPartitionedCall/sequential/efficientnet-b2/block2b_expand_conv/Conv2D_weights", "op": "Const", "attr": {"value": {"tensor": {"dtype": "DT_FLOAT", "tensorShape": {"dim": [{"size": "1"}, {"size": "1"}, {"size": "24"}, {"size": "144"}]}}}, "dtype": {"type": "DT_FLOAT"}}}, {"name": "StatefulPartitionedCall/sequential/efficientnet-b2/block7b_project_conv/Conv2D_bn_offset", "op": "Const", "attr": {"dtype": {"type": "DT_FLOAT"}, "value": {"tensor": {"dtype": "DT_FLOAT", "tensorShape": {"dim": [{"size": "352"}]}}}}}, {"name": "StatefulPartitionedCall/sequential/efficientnet-b2/block2b_expand_conv/Conv2D_bn_offset", "op": "Const", "attr": {"dtype": {"type": "DT_FLOAT"}, "value": {"tensor": {"dtype": "DT_FLOAT", "tensorShape": {"dim": [{"size": "144"}]}}}}}, {"name": "StatefulPartitionedCall/sequential/efficientnet-b2/block2b_dwconv/depthwise_weights", "op": "Const", "attr": {"value": {"tensor": {"dtype": "DT_FLOAT", "tensorShape": {"dim": [{"size": "3"}, {"size": "3"}, {"size": "144"}, {"size": "1"}]}}}, "dtype": {"type": "DT_FLOAT"}}}, {"name": "StatefulPartitionedCall/sequential/efficientnet-b2/block2b_dwconv/depthwise_bn_offset", "op": "Const", "attr": {"value": {"tensor": {"dtype": "DT_FLOAT", "tensorShape": {"dim": [{"size": "144"}]}}}, "dtype": {"type": "DT_FLOAT"}}}, {"name": "StatefulPartitionedCall/sequential/efficientnet-b2/block2b_project_conv/Conv2D_weights", "op": "Const", "attr": {"value": {"tensor": {"dtype": "DT_FLOAT", "tensorShape": {"dim": [{"size": "1"}, {"size": "1"}, {"size": "144"}, {"size": "24"}]}}}, "dtype": {"type": "DT_FLOAT"}}}, {"name": "StatefulPartitionedCall/sequential/efficientnet-b2/block2b_project_conv/Conv2D_bn_offset", "op": "Const", "attr": {"value": {"tensor": {"dtype": "DT_FLOAT", "tensorShape": {"dim": [{"size": "24"}]}}}, "dtype": {"type": "DT_FLOAT"}}}, {"name": "StatefulPartitionedCall/sequential/efficientnet-b2/block2c_expand_conv/Conv2D_weights", "op": "Const", "attr": {"value": {"tensor": {"dtype": "DT_FLOAT", "tensorShape": {"dim": [{"size": "1"}, {"size": "1"}, {"size": "24"}, {"size": "144"}]}}}, "dtype": {"type": "DT_FLOAT"}}}, {"name": "StatefulPartitionedCall/sequential/efficientnet-b2/block2c_expand_conv/Conv2D_bn_offset", "op": "Const", "attr": {"dtype": {"type": "DT_FLOAT"}, "value": {"tensor": {"dtype": "DT_FLOAT", "tensorShape": {"dim": [{"size": "144"}]}}}}}, {"name": "StatefulPartitionedCall/sequential/efficientnet-b2/block2c_dwconv/depthwise_weights", "op": "Const", "attr": {"dtype": {"type": "DT_FLOAT"}, "value": {"tensor": {"dtype": "DT_FLOAT", "tensorShape": {"dim": [{"size": "3"}, {"size": "3"}, {"size": "144"}, {"size": "1"}]}}}}}, {"name": "StatefulPartitionedCall/sequential/efficientnet-b2/block2c_dwconv/depthwise_bn_offset", "op": "Const", "attr": {"value": {"tensor": {"dtype": "DT_FLOAT", "tensorShape": {"dim": [{"size": "144"}]}}}, "dtype": {"type": "DT_FLOAT"}}}, {"name": "StatefulPartitionedCall/sequential/efficientnet-b2/block2c_project_conv/Conv2D_weights", "op": "Const", "attr": {"dtype": {"type": "DT_FLOAT"}, "value": {"tensor": {"dtype": "DT_FLOAT", "tensorShape": {"dim": [{"size": "1"}, {"size": "1"}, {"size": "144"}, {"size": "24"}]}}}}}, {"name": "StatefulPartitionedCall/sequential/efficientnet-b2/block2c_project_conv/Conv2D_bn_offset", "op": "Const", "attr": {"dtype": {"type": "DT_FLOAT"}, "value": {"tensor": {"dtype": "DT_FLOAT", "tensorShape": {"dim": [{"size": "24"}]}}}}}, {"name": "StatefulPartitionedCall/sequential/efficientnet-b2/block3a_expand_conv/Conv2D_weights", "op": "Const", "attr": {"value": {"tensor": {"dtype": "DT_FLOAT", "tensorShape": {"dim": [{"size": "1"}, {"size": "1"}, {"size": "24"}, {"size": "144"}]}}}, "dtype": {"type": "DT_FLOAT"}}}, {"name": "StatefulPartitionedCall/sequential/efficientnet-b2/block6e_project_conv/Conv2D_weights", "op": "Const", "attr": {"value": {"tensor": {"dtype": "DT_FLOAT", "tensorShape": {"dim": [{"size": "1"}, {"size": "1"}, {"size": "1248"}, {"size": "208"}]}}}, "dtype": {"type": "DT_FLOAT"}}}, {"name": "StatefulPartitionedCall/sequential/efficientnet-b2/block3a_expand_conv/Conv2D_bn_offset", "op": "Const", "attr": {"value": {"tensor": {"dtype": "DT_FLOAT", "tensorShape": {"dim": [{"size": "144"}]}}}, "dtype": {"type": "DT_FLOAT"}}}, {"name": "StatefulPartitionedCall/sequential/efficientnet-b2/block3a_dwconv/depthwise_weights", "op": "Const", "attr": {"value": {"tensor": {"dtype": "DT_FLOAT", "tensorShape": {"dim": [{"size": "5"}, {"size": "5"}, {"size": "144"}, {"size": "1"}]}}}, "dtype": {"type": "DT_FLOAT"}}}, {"name": "StatefulPartitionedCall/sequential/efficientnet-b2/block3a_dwconv/depthwise_bn_offset", "op": "Const", "attr": {"value": {"tensor": {"dtype": "DT_FLOAT", "tensorShape": {"dim": [{"size": "144"}]}}}, "dtype": {"type": "DT_FLOAT"}}}, {"name": "StatefulPartitionedCall/sequential/efficientnet-b2/block6e_project_conv/Conv2D_bn_offset", "op": "Const", "attr": {"value": {"tensor": {"dtype": "DT_FLOAT", "tensorShape": {"dim": [{"size": "208"}]}}}, "dtype": {"type": "DT_FLOAT"}}}, {"name": "StatefulPartitionedCall/sequential/efficientnet-b2/block3a_project_conv/Conv2D_weights", "op": "Const", "attr": {"value": {"tensor": {"dtype": "DT_FLOAT", "tensorShape": {"dim": [{"size": "1"}, {"size": "1"}, {"size": "144"}, {"size": "48"}]}}}, "dtype": {"type": "DT_FLOAT"}}}, {"name": "StatefulPartitionedCall/sequential/efficientnet-b2/block3a_project_conv/Conv2D_bn_offset", "op": "Const", "attr": {"value": {"tensor": {"dtype": "DT_FLOAT", "tensorShape": {"dim": [{"size": "48"}]}}}, "dtype": {"type": "DT_FLOAT"}}}, {"name": "StatefulPartitionedCall/sequential/efficientnet-b2/block3b_expand_conv/Conv2D_weights", "op": "Const", "attr": {"value": {"tensor": {"dtype": "DT_FLOAT", "tensorShape": {"dim": [{"size": "1"}, {"size": "1"}, {"size": "48"}, {"size": "288"}]}}}, "dtype": {"type": "DT_FLOAT"}}}, {"name": "StatefulPartitionedCall/sequential/efficientnet-b2/block3b_expand_conv/Conv2D_bn_offset", "op": "Const", "attr": {"value": {"tensor": {"dtype": "DT_FLOAT", "tensorShape": {"dim": [{"size": "288"}]}}}, "dtype": {"type": "DT_FLOAT"}}}, {"name": "StatefulPartitionedCall/sequential/efficientnet-b2/block3b_dwconv/depthwise_weights", "op": "Const", "attr": {"dtype": {"type": "DT_FLOAT"}, "value": {"tensor": {"dtype": "DT_FLOAT", "tensorShape": {"dim": [{"size": "5"}, {"size": "5"}, {"size": "288"}, {"size": "1"}]}}}}}, {"name": "StatefulPartitionedCall/sequential/efficientnet-b2/block3b_dwconv/depthwise_bn_offset", "op": "Const", "attr": {"value": {"tensor": {"dtype": "DT_FLOAT", "tensorShape": {"dim": [{"size": "288"}]}}}, "dtype": {"type": "DT_FLOAT"}}}, {"name": "StatefulPartitionedCall/sequential/efficientnet-b2/block7a_expand_conv/Conv2D_weights", "op": "Const", "attr": {"value": {"tensor": {"dtype": "DT_FLOAT", "tensorShape": {"dim": [{"size": "1"}, {"size": "1"}, {"size": "208"}, {"size": "1248"}]}}}, "dtype": {"type": "DT_FLOAT"}}}, {"name": "StatefulPartitionedCall/sequential/efficientnet-b2/top_conv/Conv2D_weights", "op": "Const", "attr": {"value": {"tensor": {"dtype": "DT_FLOAT", "tensorShape": {"dim": [{"size": "1"}, {"size": "1"}, {"size": "352"}, {"size": "1408"}]}}}, "dtype": {"type": "DT_FLOAT"}}}, {"name": "StatefulPartitionedCall/sequential/efficientnet-b2/block3b_project_conv/Conv2D_weights", "op": "Const", "attr": {"value": {"tensor": {"dtype": "DT_FLOAT", "tensorShape": {"dim": [{"size": "1"}, {"size": "1"}, {"size": "288"}, {"size": "48"}]}}}, "dtype": {"type": "DT_FLOAT"}}}, {"name": "StatefulPartitionedCall/sequential/efficientnet-b2/block7a_expand_conv/Conv2D_bn_offset", "op": "Const", "attr": {"value": {"tensor": {"dtype": "DT_FLOAT", "tensorShape": {"dim": [{"size": "1248"}]}}}, "dtype": {"type": "DT_FLOAT"}}}, {"name": "StatefulPartitionedCall/sequential/efficientnet-b2/block3b_project_conv/Conv2D_bn_offset", "op": "Const", "attr": {"value": {"tensor": {"dtype": "DT_FLOAT", "tensorShape": {"dim": [{"size": "48"}]}}}, "dtype": {"type": "DT_FLOAT"}}}, {"name": "StatefulPartitionedCall/sequential/efficientnet-b2/block3c_expand_conv/Conv2D_weights", "op": "Const", "attr": {"value": {"tensor": {"dtype": "DT_FLOAT", "tensorShape": {"dim": [{"size": "1"}, {"size": "1"}, {"size": "48"}, {"size": "288"}]}}}, "dtype": {"type": "DT_FLOAT"}}}, {"name": "StatefulPartitionedCall/sequential/efficientnet-b2/block3c_expand_conv/Conv2D_bn_offset", "op": "Const", "attr": {"value": {"tensor": {"dtype": "DT_FLOAT", "tensorShape": {"dim": [{"size": "288"}]}}}, "dtype": {"type": "DT_FLOAT"}}}, {"name": "StatefulPartitionedCall/sequential/efficientnet-b2/block3c_dwconv/depthwise_weights", "op": "Const", "attr": {"value": {"tensor": {"dtype": "DT_FLOAT", "tensorShape": {"dim": [{"size": "5"}, {"size": "5"}, {"size": "288"}, {"size": "1"}]}}}, "dtype": {"type": "DT_FLOAT"}}}, {"name": "StatefulPartitionedCall/sequential/efficientnet-b2/block3c_dwconv/depthwise_bn_offset", "op": "Const", "attr": {"value": {"tensor": {"dtype": "DT_FLOAT", "tensorShape": {"dim": [{"size": "288"}]}}}, "dtype": {"type": "DT_FLOAT"}}}, {"name": "StatefulPartitionedCall/sequential/efficientnet-b2/block3c_project_conv/Conv2D_weights", "op": "Const", "attr": {"dtype": {"type": "DT_FLOAT"}, "value": {"tensor": {"dtype": "DT_FLOAT", "tensorShape": {"dim": [{"size": "1"}, {"size": "1"}, {"size": "288"}, {"size": "48"}]}}}}}, {"name": "StatefulPartitionedCall/sequential/efficientnet-b2/block7a_dwconv/depthwise_weights", "op": "Const", "attr": {"value": {"tensor": {"dtype": "DT_FLOAT", "tensorShape": {"dim": [{"size": "3"}, {"size": "3"}, {"size": "1248"}, {"size": "1"}]}}}, "dtype": {"type": "DT_FLOAT"}}}, {"name": "StatefulPartitionedCall/sequential/efficientnet-b2/block3c_project_conv/Conv2D_bn_offset", "op": "Const", "attr": {"value": {"tensor": {"dtype": "DT_FLOAT", "tensorShape": {"dim": [{"size": "48"}]}}}, "dtype": {"type": "DT_FLOAT"}}}, {"name": "StatefulPartitionedCall/sequential/efficientnet-b2/block4a_expand_conv/Conv2D_weights", "op": "Const", "attr": {"value": {"tensor": {"dtype": "DT_FLOAT", "tensorShape": {"dim": [{"size": "1"}, {"size": "1"}, {"size": "48"}, {"size": "288"}]}}}, "dtype": {"type": "DT_FLOAT"}}}, {"name": "StatefulPartitionedCall/sequential/efficientnet-b2/block4a_expand_conv/Conv2D_bn_offset", "op": "Const", "attr": {"value": {"tensor": {"dtype": "DT_FLOAT", "tensorShape": {"dim": [{"size": "288"}]}}}, "dtype": {"type": "DT_FLOAT"}}}, {"name": "StatefulPartitionedCall/sequential/efficientnet-b2/block4a_dwconv/depthwise_weights", "op": "Const", "attr": {"dtype": {"type": "DT_FLOAT"}, "value": {"tensor": {"dtype": "DT_FLOAT", "tensorShape": {"dim": [{"size": "3"}, {"size": "3"}, {"size": "288"}, {"size": "1"}]}}}}}, {"name": "StatefulPartitionedCall/sequential/efficientnet-b2/block4a_dwconv/depthwise_bn_offset", "op": "Const", "attr": {"value": {"tensor": {"dtype": "DT_FLOAT", "tensorShape": {"dim": [{"size": "288"}]}}}, "dtype": {"type": "DT_FLOAT"}}}, {"name": "StatefulPartitionedCall/sequential/efficientnet-b2/block7a_dwconv/depthwise_bn_offset", "op": "Const", "attr": {"value": {"tensor": {"dtype": "DT_FLOAT", "tensorShape": {"dim": [{"size": "1248"}]}}}, "dtype": {"type": "DT_FLOAT"}}}, {"name": "StatefulPartitionedCall/sequential/efficientnet-b2/block4a_project_conv/Conv2D_weights", "op": "Const", "attr": {"value": {"tensor": {"dtype": "DT_FLOAT", "tensorShape": {"dim": [{"size": "1"}, {"size": "1"}, {"size": "288"}, {"size": "88"}]}}}, "dtype": {"type": "DT_FLOAT"}}}, {"name": "StatefulPartitionedCall/sequential/efficientnet-b2/block4a_project_conv/Conv2D_bn_offset", "op": "Const", "attr": {"value": {"tensor": {"dtype": "DT_FLOAT", "tensorShape": {"dim": [{"size": "88"}]}}}, "dtype": {"type": "DT_FLOAT"}}}, {"name": "StatefulPartitionedCall/sequential/efficientnet-b2/block4b_expand_conv/Conv2D_weights", "op": "Const", "attr": {"value": {"tensor": {"dtype": "DT_FLOAT", "tensorShape": {"dim": [{"size": "1"}, {"size": "1"}, {"size": "88"}, {"size": "528"}]}}}, "dtype": {"type": "DT_FLOAT"}}}, {"name": "StatefulPartitionedCall/sequential/efficientnet-b2/block4b_expand_conv/Conv2D_bn_offset", "op": "Const", "attr": {"value": {"tensor": {"dtype": "DT_FLOAT", "tensorShape": {"dim": [{"size": "528"}]}}}, "dtype": {"type": "DT_FLOAT"}}}, {"name": "StatefulPartitionedCall/sequential/efficientnet-b2/block4b_dwconv/depthwise_weights", "op": "Const", "attr": {"value": {"tensor": {"dtype": "DT_FLOAT", "tensorShape": {"dim": [{"size": "3"}, {"size": "3"}, {"size": "528"}, {"size": "1"}]}}}, "dtype": {"type": "DT_FLOAT"}}}, {"name": "StatefulPartitionedCall/sequential/efficientnet-b2/block4b_dwconv/depthwise_bn_offset", "op": "Const", "attr": {"value": {"tensor": {"dtype": "DT_FLOAT", "tensorShape": {"dim": [{"size": "528"}]}}}, "dtype": {"type": "DT_FLOAT"}}}, {"name": "StatefulPartitionedCall/sequential/efficientnet-b2/block4b_project_conv/Conv2D_weights", "op": "Const", "attr": {"value": {"tensor": {"dtype": "DT_FLOAT", "tensorShape": {"dim": [{"size": "1"}, {"size": "1"}, {"size": "528"}, {"size": "88"}]}}}, "dtype": {"type": "DT_FLOAT"}}}, {"name": "StatefulPartitionedCall/sequential/efficientnet-b2/block4b_project_conv/Conv2D_bn_offset", "op": "Const", "attr": {"value": {"tensor": {"dtype": "DT_FLOAT", "tensorShape": {"dim": [{"size": "88"}]}}}, "dtype": {"type": "DT_FLOAT"}}}, {"name": "StatefulPartitionedCall/sequential/efficientnet-b2/block4c_expand_conv/Conv2D_weights", "op": "Const", "attr": {"value": {"tensor": {"dtype": "DT_FLOAT", "tensorShape": {"dim": [{"size": "1"}, {"size": "1"}, {"size": "88"}, {"size": "528"}]}}}, "dtype": {"type": "DT_FLOAT"}}}, {"name": "StatefulPartitionedCall/sequential/efficientnet-b2/block4c_expand_conv/Conv2D_bn_offset", "op": "Const", "attr": {"value": {"tensor": {"dtype": "DT_FLOAT", "tensorShape": {"dim": [{"size": "528"}]}}}, "dtype": {"type": "DT_FLOAT"}}}, {"name": "StatefulPartitionedCall/sequential/efficientnet-b2/block4c_dwconv/depthwise_weights", "op": "Const", "attr": {"dtype": {"type": "DT_FLOAT"}, "value": {"tensor": {"dtype": "DT_FLOAT", "tensorShape": {"dim": [{"size": "3"}, {"size": "3"}, {"size": "528"}, {"size": "1"}]}}}}}, {"name": "StatefulPartitionedCall/sequential/efficientnet-b2/block4c_dwconv/depthwise_bn_offset", "op": "Const", "attr": {"dtype": {"type": "DT_FLOAT"}, "value": {"tensor": {"dtype": "DT_FLOAT", "tensorShape": {"dim": [{"size": "528"}]}}}}}, {"name": "StatefulPartitionedCall/sequential/efficientnet-b2/block4c_project_conv/Conv2D_weights", "op": "Const", "attr": {"value": {"tensor": {"dtype": "DT_FLOAT", "tensorShape": {"dim": [{"size": "1"}, {"size": "1"}, {"size": "528"}, {"size": "88"}]}}}, "dtype": {"type": "DT_FLOAT"}}}, {"name": "StatefulPartitionedCall/sequential/efficientnet-b2/block4c_project_conv/Conv2D_bn_offset", "op": "Const", "attr": {"dtype": {"type": "DT_FLOAT"}, "value": {"tensor": {"dtype": "DT_FLOAT", "tensorShape": {"dim": [{"size": "88"}]}}}}}, {"name": "StatefulPartitionedCall/sequential/efficientnet-b2/block4d_expand_conv/Conv2D_weights", "op": "Const", "attr": {"value": {"tensor": {"dtype": "DT_FLOAT", "tensorShape": {"dim": [{"size": "1"}, {"size": "1"}, {"size": "88"}, {"size": "528"}]}}}, "dtype": {"type": "DT_FLOAT"}}}, {"name": "StatefulPartitionedCall/sequential/efficientnet-b2/block4d_expand_conv/Conv2D_bn_offset", "op": "Const", "attr": {"value": {"tensor": {"dtype": "DT_FLOAT", "tensorShape": {"dim": [{"size": "528"}]}}}, "dtype": {"type": "DT_FLOAT"}}}, {"name": "StatefulPartitionedCall/sequential/efficientnet-b2/block4d_dwconv/depthwise_weights", "op": "Const", "attr": {"value": {"tensor": {"dtype": "DT_FLOAT", "tensorShape": {"dim": [{"size": "3"}, {"size": "3"}, {"size": "528"}, {"size": "1"}]}}}, "dtype": {"type": "DT_FLOAT"}}}, {"name": "StatefulPartitionedCall/sequential/efficientnet-b2/block4d_dwconv/depthwise_bn_offset", "op": "Const", "attr": {"value": {"tensor": {"dtype": "DT_FLOAT", "tensorShape": {"dim": [{"size": "528"}]}}}, "dtype": {"type": "DT_FLOAT"}}}, {"name": "StatefulPartitionedCall/sequential/efficientnet-b2/top_conv/Conv2D_bn_offset", "op": "Const", "attr": {"value": {"tensor": {"dtype": "DT_FLOAT", "tensorShape": {"dim": [{"size": "1408"}]}}}, "dtype": {"type": "DT_FLOAT"}}}, {"name": "StatefulPartitionedCall/sequential/efficientnet-b2/block4d_project_conv/Conv2D_weights", "op": "Const", "attr": {"value": {"tensor": {"dtype": "DT_FLOAT", "tensorShape": {"dim": [{"size": "1"}, {"size": "1"}, {"size": "528"}, {"size": "88"}]}}}, "dtype": {"type": "DT_FLOAT"}}}, {"name": "StatefulPartitionedCall/sequential/efficientnet-b2/block4d_project_conv/Conv2D_bn_offset", "op": "Const", "attr": {"value": {"tensor": {"dtype": "DT_FLOAT", "tensorShape": {"dim": [{"size": "88"}]}}}, "dtype": {"type": "DT_FLOAT"}}}, {"name": "StatefulPartitionedCall/sequential/efficientnet-b2/block5a_expand_conv/Conv2D_weights", "op": "Const", "attr": {"value": {"tensor": {"dtype": "DT_FLOAT", "tensorShape": {"dim": [{"size": "1"}, {"size": "1"}, {"size": "88"}, {"size": "528"}]}}}, "dtype": {"type": "DT_FLOAT"}}}, {"name": "StatefulPartitionedCall/sequential/efficientnet-b2/block5a_expand_conv/Conv2D_bn_offset", "op": "Const", "attr": {"value": {"tensor": {"dtype": "DT_FLOAT", "tensorShape": {"dim": [{"size": "528"}]}}}, "dtype": {"type": "DT_FLOAT"}}}, {"name": "StatefulPartitionedCall/sequential/efficientnet-b2/block5a_dwconv/depthwise_weights", "op": "Const", "attr": {"value": {"tensor": {"dtype": "DT_FLOAT", "tensorShape": {"dim": [{"size": "5"}, {"size": "5"}, {"size": "528"}, {"size": "1"}]}}}, "dtype": {"type": "DT_FLOAT"}}}, {"name": "StatefulPartitionedCall/sequential/efficientnet-b2/block5a_dwconv/depthwise_bn_offset", "op": "Const", "attr": {"value": {"tensor": {"dtype": "DT_FLOAT", "tensorShape": {"dim": [{"size": "528"}]}}}, "dtype": {"type": "DT_FLOAT"}}}, {"name": "StatefulPartitionedCall/sequential/efficientnet-b2/block7a_project_conv/Conv2D_weights", "op": "Const", "attr": {"value": {"tensor": {"dtype": "DT_FLOAT", "tensorShape": {"dim": [{"size": "1"}, {"size": "1"}, {"size": "1248"}, {"size": "352"}]}}}, "dtype": {"type": "DT_FLOAT"}}}, {"name": "StatefulPartitionedCall/sequential/efficientnet-b2/block5a_project_conv/Conv2D_weights", "op": "Const", "attr": {"value": {"tensor": {"dtype": "DT_FLOAT", "tensorShape": {"dim": [{"size": "1"}, {"size": "1"}, {"size": "528"}, {"size": "120"}]}}}, "dtype": {"type": "DT_FLOAT"}}}, {"name": "StatefulPartitionedCall/sequential/efficientnet-b2/block5a_project_conv/Conv2D_bn_offset", "op": "Const", "attr": {"dtype": {"type": "DT_FLOAT"}, "value": {"tensor": {"dtype": "DT_FLOAT", "tensorShape": {"dim": [{"size": "120"}]}}}}}, {"name": "StatefulPartitionedCall/sequential/efficientnet-b2/block5b_expand_conv/Conv2D_weights", "op": "Const", "attr": {"dtype": {"type": "DT_FLOAT"}, "value": {"tensor": {"dtype": "DT_FLOAT", "tensorShape": {"dim": [{"size": "1"}, {"size": "1"}, {"size": "120"}, {"size": "720"}]}}}}}, {"name": "StatefulPartitionedCall/sequential/efficientnet-b2/block7a_project_conv/Conv2D_bn_offset", "op": "Const", "attr": {"value": {"tensor": {"dtype": "DT_FLOAT", "tensorShape": {"dim": [{"size": "352"}]}}}, "dtype": {"type": "DT_FLOAT"}}}, {"name": "StatefulPartitionedCall/sequential/efficientnet-b2/block5b_expand_conv/Conv2D_bn_offset", "op": "Const", "attr": {"value": {"tensor": {"dtype": "DT_FLOAT", "tensorShape": {"dim": [{"size": "720"}]}}}, "dtype": {"type": "DT_FLOAT"}}}, {"name": "StatefulPartitionedCall/sequential/efficientnet-b2/block5b_dwconv/depthwise_weights", "op": "Const", "attr": {"value": {"tensor": {"dtype": "DT_FLOAT", "tensorShape": {"dim": [{"size": "5"}, {"size": "5"}, {"size": "720"}, {"size": "1"}]}}}, "dtype": {"type": "DT_FLOAT"}}}, {"name": "StatefulPartitionedCall/sequential/efficientnet-b2/block5b_dwconv/depthwise_bn_offset", "op": "Const", "attr": {"value": {"tensor": {"dtype": "DT_FLOAT", "tensorShape": {"dim": [{"size": "720"}]}}}, "dtype": {"type": "DT_FLOAT"}}}, {"name": "StatefulPartitionedCall/sequential/efficientnet-b2/block7b_expand_conv/Conv2D_weights", "op": "Const", "attr": {"dtype": {"type": "DT_FLOAT"}, "value": {"tensor": {"dtype": "DT_FLOAT", "tensorShape": {"dim": [{"size": "1"}, {"size": "1"}, {"size": "352"}, {"size": "2112"}]}}}}}, {"name": "StatefulPartitionedCall/sequential/efficientnet-b2/block5b_project_conv/Conv2D_weights", "op": "Const", "attr": {"dtype": {"type": "DT_FLOAT"}, "value": {"tensor": {"dtype": "DT_FLOAT", "tensorShape": {"dim": [{"size": "1"}, {"size": "1"}, {"size": "720"}, {"size": "120"}]}}}}}, {"name": "StatefulPartitionedCall/sequential/efficientnet-b2/block5b_project_conv/Conv2D_bn_offset", "op": "Const", "attr": {"value": {"tensor": {"dtype": "DT_FLOAT", "tensorShape": {"dim": [{"size": "120"}]}}}, "dtype": {"type": "DT_FLOAT"}}}, {"name": "StatefulPartitionedCall/sequential/efficientnet-b2/block5c_expand_conv/Conv2D_weights", "op": "Const", "attr": {"dtype": {"type": "DT_FLOAT"}, "value": {"tensor": {"dtype": "DT_FLOAT", "tensorShape": {"dim": [{"size": "1"}, {"size": "1"}, {"size": "120"}, {"size": "720"}]}}}}}, {"name": "StatefulPartitionedCall/sequential/efficientnet-b2/block7b_expand_conv/Conv2D_bn_offset", "op": "Const", "attr": {"value": {"tensor": {"dtype": "DT_FLOAT", "tensorShape": {"dim": [{"size": "2112"}]}}}, "dtype": {"type": "DT_FLOAT"}}}, {"name": "StatefulPartitionedCall/sequential/efficientnet-b2/block5c_expand_conv/Conv2D_bn_offset", "op": "Const", "attr": {"dtype": {"type": "DT_FLOAT"}, "value": {"tensor": {"dtype": "DT_FLOAT", "tensorShape": {"dim": [{"size": "720"}]}}}}}, {"name": "StatefulPartitionedCall/sequential/efficientnet-b2/block5c_dwconv/depthwise_weights", "op": "Const", "attr": {"dtype": {"type": "DT_FLOAT"}, "value": {"tensor": {"dtype": "DT_FLOAT", "tensorShape": {"dim": [{"size": "5"}, {"size": "5"}, {"size": "720"}, {"size": "1"}]}}}}}, {"name": "StatefulPartitionedCall/sequential/efficientnet-b2/block5c_dwconv/depthwise_bn_offset", "op": "Const", "attr": {"value": {"tensor": {"dtype": "DT_FLOAT", "tensorShape": {"dim": [{"size": "720"}]}}}, "dtype": {"type": "DT_FLOAT"}}}, {"name": "StatefulPartitionedCall/sequential/efficientnet-b2/block5c_project_conv/Conv2D_weights", "op": "Const", "attr": {"value": {"tensor": {"dtype": "DT_FLOAT", "tensorShape": {"dim": [{"size": "1"}, {"size": "1"}, {"size": "720"}, {"size": "120"}]}}}, "dtype": {"type": "DT_FLOAT"}}}, {"name": "StatefulPartitionedCall/sequential/efficientnet-b2/block5c_project_conv/Conv2D_bn_offset", "op": "Const", "attr": {"dtype": {"type": "DT_FLOAT"}, "value": {"tensor": {"dtype": "DT_FLOAT", "tensorShape": {"dim": [{"size": "120"}]}}}}}, {"name": "StatefulPartitionedCall/sequential/efficientnet-b2/block5d_expand_conv/Conv2D_weights", "op": "Const", "attr": {"value": {"tensor": {"dtype": "DT_FLOAT", "tensorShape": {"dim": [{"size": "1"}, {"size": "1"}, {"size": "120"}, {"size": "720"}]}}}, "dtype": {"type": "DT_FLOAT"}}}, {"name": "StatefulPartitionedCall/sequential/efficientnet-b2/block7b_dwconv/depthwise_weights", "op": "Const", "attr": {"dtype": {"type": "DT_FLOAT"}, "value": {"tensor": {"dtype": "DT_FLOAT", "tensorShape": {"dim": [{"size": "3"}, {"size": "3"}, {"size": "2112"}, {"size": "1"}]}}}}}, {"name": "StatefulPartitionedCall/sequential/efficientnet-b2/block5d_expand_conv/Conv2D_bn_offset", "op": "Const", "attr": {"value": {"tensor": {"dtype": "DT_FLOAT", "tensorShape": {"dim": [{"size": "720"}]}}}, "dtype": {"type": "DT_FLOAT"}}}, {"name": "StatefulPartitionedCall/sequential/efficientnet-b2/block5d_dwconv/depthwise_weights", "op": "Const", "attr": {"value": {"tensor": {"dtype": "DT_FLOAT", "tensorShape": {"dim": [{"size": "5"}, {"size": "5"}, {"size": "720"}, {"size": "1"}]}}}, "dtype": {"type": "DT_FLOAT"}}}, {"name": "StatefulPartitionedCall/sequential/efficientnet-b2/block5d_dwconv/depthwise_bn_offset", "op": "Const", "attr": {"value": {"tensor": {"dtype": "DT_FLOAT", "tensorShape": {"dim": [{"size": "720"}]}}}, "dtype": {"type": "DT_FLOAT"}}}, {"name": "StatefulPartitionedCall/sequential/efficientnet-b2/block7b_dwconv/depthwise_bn_offset", "op": "Const", "attr": {"dtype": {"type": "DT_FLOAT"}, "value": {"tensor": {"dtype": "DT_FLOAT", "tensorShape": {"dim": [{"size": "2112"}]}}}}}, {"name": "StatefulPartitionedCall/sequential/efficientnet-b2/block5d_project_conv/Conv2D_weights", "op": "Const", "attr": {"dtype": {"type": "DT_FLOAT"}, "value": {"tensor": {"dtype": "DT_FLOAT", "tensorShape": {"dim": [{"size": "1"}, {"size": "1"}, {"size": "720"}, {"size": "120"}]}}}}}, {"name": "StatefulPartitionedCall/sequential/efficientnet-b2/block5d_project_conv/Conv2D_bn_offset", "op": "Const", "attr": {"value": {"tensor": {"dtype": "DT_FLOAT", "tensorShape": {"dim": [{"size": "120"}]}}}, "dtype": {"type": "DT_FLOAT"}}}, {"name": "StatefulPartitionedCall/sequential/efficientnet-b2/block6a_expand_conv/Conv2D_weights", "op": "Const", "attr": {"value": {"tensor": {"dtype": "DT_FLOAT", "tensorShape": {"dim": [{"size": "1"}, {"size": "1"}, {"size": "120"}, {"size": "720"}]}}}, "dtype": {"type": "DT_FLOAT"}}}, {"name": "StatefulPartitionedCall/sequential/efficientnet-b2/block6a_expand_conv/Conv2D_bn_offset", "op": "Const", "attr": {"value": {"tensor": {"dtype": "DT_FLOAT", "tensorShape": {"dim": [{"size": "720"}]}}}, "dtype": {"type": "DT_FLOAT"}}}, {"name": "StatefulPartitionedCall/sequential/efficientnet-b2/block6a_dwconv/depthwise_weights", "op": "Const", "attr": {"value": {"tensor": {"dtype": "DT_FLOAT", "tensorShape": {"dim": [{"size": "5"}, {"size": "5"}, {"size": "720"}, {"size": "1"}]}}}, "dtype": {"type": "DT_FLOAT"}}}, {"name": "StatefulPartitionedCall/sequential/efficientnet-b2/block6a_dwconv/depthwise_bn_offset", "op": "Const", "attr": {"dtype": {"type": "DT_FLOAT"}, "value": {"tensor": {"dtype": "DT_FLOAT", "tensorShape": {"dim": [{"size": "720"}]}}}}}, {"name": "StatefulPartitionedCall/sequential/efficientnet-b2/block6a_project_conv/Conv2D_weights", "op": "Const", "attr": {"value": {"tensor": {"dtype": "DT_FLOAT", "tensorShape": {"dim": [{"size": "1"}, {"size": "1"}, {"size": "720"}, {"size": "208"}]}}}, "dtype": {"type": "DT_FLOAT"}}}, {"name": "StatefulPartitionedCall/sequential/efficientnet-b2/block6a_project_conv/Conv2D_bn_offset", "op": "Const", "attr": {"dtype": {"type": "DT_FLOAT"}, "value": {"tensor": {"dtype": "DT_FLOAT", "tensorShape": {"dim": [{"size": "208"}]}}}}}, {"name": "StatefulPartitionedCall/sequential/efficientnet-b2/block6b_expand_conv/Conv2D_weights", "op": "Const", "attr": {"dtype": {"type": "DT_FLOAT"}, "value": {"tensor": {"dtype": "DT_FLOAT", "tensorShape": {"dim": [{"size": "1"}, {"size": "1"}, {"size": "208"}, {"size": "1248"}]}}}}}, {"name": "StatefulPartitionedCall/sequential/efficientnet-b2/block6b_expand_conv/Conv2D_bn_offset", "op": "Const", "attr": {"dtype": {"type": "DT_FLOAT"}, "value": {"tensor": {"dtype": "DT_FLOAT", "tensorShape": {"dim": [{"size": "1248"}]}}}}}, {"name": "StatefulPartitionedCall/sequential/efficientnet-b2/block6b_dwconv/depthwise_weights", "op": "Const", "attr": {"dtype": {"type": "DT_FLOAT"}, "value": {"tensor": {"dtype": "DT_FLOAT", "tensorShape": {"dim": [{"size": "5"}, {"size": "5"}, {"size": "1248"}, {"size": "1"}]}}}}}, {"name": "StatefulPartitionedCall/sequential/efficientnet-b2/block6b_dwconv/depthwise_bn_offset", "op": "Const", "attr": {"dtype": {"type": "DT_FLOAT"}, "value": {"tensor": {"dtype": "DT_FLOAT", "tensorShape": {"dim": [{"size": "1248"}]}}}}}, {"name": "StatefulPartitionedCall/sequential/efficientnet-b2/block6b_project_conv/Conv2D_weights", "op": "Const", "attr": {"value": {"tensor": {"dtype": "DT_FLOAT", "tensorShape": {"dim": [{"size": "1"}, {"size": "1"}, {"size": "1248"}, {"size": "208"}]}}}, "dtype": {"type": "DT_FLOAT"}}}, {"name": "StatefulPartitionedCall/sequential/efficientnet-b2/block6b_project_conv/Conv2D_bn_offset", "op": "Const", "attr": {"value": {"tensor": {"dtype": "DT_FLOAT", "tensorShape": {"dim": [{"size": "208"}]}}}, "dtype": {"type": "DT_FLOAT"}}}, {"name": "StatefulPartitionedCall/sequential/efficientnet-b2/block6c_expand_conv/Conv2D_weights", "op": "Const", "attr": {"dtype": {"type": "DT_FLOAT"}, "value": {"tensor": {"dtype": "DT_FLOAT", "tensorShape": {"dim": [{"size": "1"}, {"size": "1"}, {"size": "208"}, {"size": "1248"}]}}}}}, {"name": "StatefulPartitionedCall/sequential/efficientnet-b2/block6c_expand_conv/Conv2D_bn_offset", "op": "Const", "attr": {"dtype": {"type": "DT_FLOAT"}, "value": {"tensor": {"dtype": "DT_FLOAT", "tensorShape": {"dim": [{"size": "1248"}]}}}}}, {"name": "StatefulPartitionedCall/sequential/efficientnet-b2/block6c_dwconv/depthwise_weights", "op": "Const", "attr": {"value": {"tensor": {"dtype": "DT_FLOAT", "tensorShape": {"dim": [{"size": "5"}, {"size": "5"}, {"size": "1248"}, {"size": "1"}]}}}, "dtype": {"type": "DT_FLOAT"}}}, {"name": "StatefulPartitionedCall/sequential/efficientnet-b2/block6c_dwconv/depthwise_bn_offset", "op": "Const", "attr": {"value": {"tensor": {"dtype": "DT_FLOAT", "tensorShape": {"dim": [{"size": "1248"}]}}}, "dtype": {"type": "DT_FLOAT"}}}, {"name": "StatefulPartitionedCall/sequential/efficientnet-b2/block6c_project_conv/Conv2D_weights", "op": "Const", "attr": {"value": {"tensor": {"dtype": "DT_FLOAT", "tensorShape": {"dim": [{"size": "1"}, {"size": "1"}, {"size": "1248"}, {"size": "208"}]}}}, "dtype": {"type": "DT_FLOAT"}}}, {"name": "StatefulPartitionedCall/sequential/efficientnet-b2/block6c_project_conv/Conv2D_bn_offset", "op": "Const", "attr": {"value": {"tensor": {"dtype": "DT_FLOAT", "tensorShape": {"dim": [{"size": "208"}]}}}, "dtype": {"type": "DT_FLOAT"}}}, {"name": "StatefulPartitionedCall/sequential/efficientnet-b2/block6d_expand_conv/Conv2D_weights", "op": "Const", "attr": {"value": {"tensor": {"dtype": "DT_FLOAT", "tensorShape": {"dim": [{"size": "1"}, {"size": "1"}, {"size": "208"}, {"size": "1248"}]}}}, "dtype": {"type": "DT_FLOAT"}}}, {"name": "StatefulPartitionedCall/sequential/efficientnet-b2/block6d_expand_conv/Conv2D_bn_offset", "op": "Const", "attr": {"dtype": {"type": "DT_FLOAT"}, "value": {"tensor": {"dtype": "DT_FLOAT", "tensorShape": {"dim": [{"size": "1248"}]}}}}}, {"name": "StatefulPartitionedCall/sequential/efficientnet-b2/block6d_dwconv/depthwise_weights", "op": "Const", "attr": {"value": {"tensor": {"dtype": "DT_FLOAT", "tensorShape": {"dim": [{"size": "5"}, {"size": "5"}, {"size": "1248"}, {"size": "1"}]}}}, "dtype": {"type": "DT_FLOAT"}}}, {"name": "StatefulPartitionedCall/sequential/efficientnet-b2/block6d_dwconv/depthwise_bn_offset", "op": "Const", "attr": {"value": {"tensor": {"dtype": "DT_FLOAT", "tensorShape": {"dim": [{"size": "1248"}]}}}, "dtype": {"type": "DT_FLOAT"}}}, {"name": "StatefulPartitionedCall/sequential/efficientnet-b2/block6d_project_conv/Conv2D_weights", "op": "Const", "attr": {"value": {"tensor": {"dtype": "DT_FLOAT", "tensorShape": {"dim": [{"size": "1"}, {"size": "1"}, {"size": "1248"}, {"size": "208"}]}}}, "dtype": {"type": "DT_FLOAT"}}}, {"name": "StatefulPartitionedCall/sequential/efficientnet-b2/block7b_project_conv/Conv2D_weights", "op": "Const", "attr": {"value": {"tensor": {"dtype": "DT_FLOAT", "tensorShape": {"dim": [{"size": "1"}, {"size": "1"}, {"size": "2112"}, {"size": "352"}]}}}, "dtype": {"type": "DT_FLOAT"}}}, {"name": "StatefulPartitionedCall/sequential/efficientnet-b2/block6d_project_conv/Conv2D_bn_offset", "op": "Const", "attr": {"value": {"tensor": {"dtype": "DT_FLOAT", "tensorShape": {"dim": [{"size": "208"}]}}}, "dtype": {"type": "DT_FLOAT"}}}, {"name": "StatefulPartitionedCall/sequential/efficientnet-b2/block6e_expand_conv/Conv2D_weights", "op": "Const", "attr": {"value": {"tensor": {"dtype": "DT_FLOAT", "tensorShape": {"dim": [{"size": "1"}, {"size": "1"}, {"size": "208"}, {"size": "1248"}]}}}, "dtype": {"type": "DT_FLOAT"}}}, {"name": "StatefulPartitionedCall/sequential/efficientnet-b2/block6e_expand_conv/Conv2D_bn_offset", "op": "Const", "attr": {"value": {"tensor": {"dtype": "DT_FLOAT", "tensorShape": {"dim": [{"size": "1248"}]}}}, "dtype": {"type": "DT_FLOAT"}}}, {"name": "StatefulPartitionedCall/sequential/efficientnet-b2/block1a_se_reshape/Reshape/shape/3", "op": "Const", "input": ["^efficientnet_b2_input"], "attr": {"dtype": {"type": "DT_INT32"}, "value": {"tensor": {"dtype": "DT_INT32", "tensorShape": {}}}}}, {"name": "Func/StatefulPartitionedCall/input/_12", "op": "Const", "input": ["^efficientnet_b2_input"], "attr": {"value": {"tensor": {"dtype": "DT_FLOAT", "tensorShape": {"dim": [{"size": "1"}, {"size": "1"}, {"size": "32"}, {"size": "8"}]}}}, "dtype": {"type": "DT_FLOAT"}}}, {"name": "Func/StatefulPartitionedCall/input/_13", "op": "Const", "input": ["^efficientnet_b2_input"], "attr": {"dtype": {"type": "DT_FLOAT"}, "value": {"tensor": {"dtype": "DT_FLOAT", "tensorShape": {"dim": [{"size": "8"}]}}}}}, {"name": "Func/StatefulPartitionedCall/input/_14", "op": "Const", "input": ["^efficientnet_b2_input"], "attr": {"value": {"tensor": {"dtype": "DT_FLOAT", "tensorShape": {"dim": [{"size": "1"}, {"size": "1"}, {"size": "8"}, {"size": "32"}]}}}, "dtype": {"type": "DT_FLOAT"}}}, {"name": "Func/StatefulPartitionedCall/input/_15", "op": "Const", "input": ["^efficientnet_b2_input"], "attr": {"value": {"tensor": {"dtype": "DT_FLOAT", "tensorShape": {"dim": [{"size": "32"}]}}}, "dtype": {"type": "DT_FLOAT"}}}, {"name": "StatefulPartitionedCall/sequential/efficientnet-b2/block1b_se_reshape/Reshape/shape/3", "op": "Const", "input": ["^efficientnet_b2_input"], "attr": {"value": {"tensor": {"dtype": "DT_INT32", "tensorShape": {}}}, "dtype": {"type": "DT_INT32"}}}, {"name": "Func/StatefulPartitionedCall/input/_26", "op": "Const", "input": ["^efficientnet_b2_input"], "attr": {"value": {"tensor": {"dtype": "DT_FLOAT", "tensorShape": {"dim": [{"size": "1"}, {"size": "1"}, {"size": "16"}, {"size": "4"}]}}}, "dtype": {"type": "DT_FLOAT"}}}, {"name": "Func/StatefulPartitionedCall/input/_27", "op": "Const", "input": ["^efficientnet_b2_input"], "attr": {"value": {"tensor": {"dtype": "DT_FLOAT", "tensorShape": {"dim": [{"size": "4"}]}}}, "dtype": {"type": "DT_FLOAT"}}}, {"name": "Func/StatefulPartitionedCall/input/_28", "op": "Const", "input": ["^efficientnet_b2_input"], "attr": {"dtype": {"type": "DT_FLOAT"}, "value": {"tensor": {"dtype": "DT_FLOAT", "tensorShape": {"dim": [{"size": "1"}, {"size": "1"}, {"size": "4"}, {"size": "16"}]}}}}}, {"name": "Func/StatefulPartitionedCall/input/_29", "op": "Const", "input": ["^efficientnet_b2_input"], "attr": {"value": {"tensor": {"dtype": "DT_FLOAT", "tensorShape": {"dim": [{"size": "16"}]}}}, "dtype": {"type": "DT_FLOAT"}}}, {"name": "StatefulPartitionedCall/sequential/efficientnet-b2/block2a_se_reshape/Reshape/shape/3", "op": "Const", "input": ["^efficientnet_b2_input"], "attr": {"value": {"tensor": {"dtype": "DT_INT32", "tensorShape": {}}}, "dtype": {"type": "DT_INT32"}}}, {"name": "Func/StatefulPartitionedCall/input/_45", "op": "Const", "input": ["^efficientnet_b2_input"], "attr": {"value": {"tensor": {"dtype": "DT_FLOAT", "tensorShape": {"dim": [{"size": "1"}, {"size": "1"}, {"size": "96"}, {"size": "4"}]}}}, "dtype": {"type": "DT_FLOAT"}}}, {"name": "Func/StatefulPartitionedCall/input/_46", "op": "Const", "input": ["^efficientnet_b2_input"], "attr": {"value": {"tensor": {"dtype": "DT_FLOAT", "tensorShape": {"dim": [{"size": "4"}]}}}, "dtype": {"type": "DT_FLOAT"}}}, {"name": "Func/StatefulPartitionedCall/input/_47", "op": "Const", "input": ["^efficientnet_b2_input"], "attr": {"value": {"tensor": {"dtype": "DT_FLOAT", "tensorShape": {"dim": [{"size": "1"}, {"size": "1"}, {"size": "4"}, {"size": "96"}]}}}, "dtype": {"type": "DT_FLOAT"}}}, {"name": "Func/StatefulPartitionedCall/input/_48", "op": "Const", "input": ["^efficientnet_b2_input"], "attr": {"value": {"tensor": {"dtype": "DT_FLOAT", "tensorShape": {"dim": [{"size": "96"}]}}}, "dtype": {"type": "DT_FLOAT"}}}, {"name": "Func/StatefulPartitionedCall/input/_64", "op": "Const", "input": ["^efficientnet_b2_input"], "attr": {"dtype": {"type": "DT_FLOAT"}, "value": {"tensor": {"dtype": "DT_FLOAT", "tensorShape": {"dim": [{"size": "1"}, {"size": "1"}, {"size": "144"}, {"size": "6"}]}}}}}, {"name": "Func/StatefulPartitionedCall/input/_65", "op": "Const", "input": ["^efficientnet_b2_input"], "attr": {"value": {"tensor": {"dtype": "DT_FLOAT", "tensorShape": {"dim": [{"size": "6"}]}}}, "dtype": {"type": "DT_FLOAT"}}}, {"name": "Func/StatefulPartitionedCall/input/_66", "op": "Const", "input": ["^efficientnet_b2_input"], "attr": {"value": {"tensor": {"dtype": "DT_FLOAT", "tensorShape": {"dim": [{"size": "1"}, {"size": "1"}, {"size": "6"}, {"size": "144"}]}}}, "dtype": {"type": "DT_FLOAT"}}}, {"name": "Func/StatefulPartitionedCall/input/_67", "op": "Const", "input": ["^efficientnet_b2_input"], "attr": {"dtype": {"type": "DT_FLOAT"}, "value": {"tensor": {"dtype": "DT_FLOAT", "tensorShape": {"dim": [{"size": "144"}]}}}}}, {"name": "Func/StatefulPartitionedCall/input/_83", "op": "Const", "input": ["^efficientnet_b2_input"], "attr": {"value": {"tensor": {"dtype": "DT_FLOAT", "tensorShape": {"dim": [{"size": "1"}, {"size": "1"}, {"size": "144"}, {"size": "6"}]}}}, "dtype": {"type": "DT_FLOAT"}}}, {"name": "Func/StatefulPartitionedCall/input/_84", "op": "Const", "input": ["^efficientnet_b2_input"], "attr": {"value": {"tensor": {"dtype": "DT_FLOAT", "tensorShape": {"dim": [{"size": "6"}]}}}, "dtype": {"type": "DT_FLOAT"}}}, {"name": "Func/StatefulPartitionedCall/input/_85", "op": "Const", "input": ["^efficientnet_b2_input"], "attr": {"value": {"tensor": {"dtype": "DT_FLOAT", "tensorShape": {"dim": [{"size": "1"}, {"size": "1"}, {"size": "6"}, {"size": "144"}]}}}, "dtype": {"type": "DT_FLOAT"}}}, {"name": "Func/StatefulPartitionedCall/input/_86", "op": "Const", "input": ["^efficientnet_b2_input"], "attr": {"value": {"tensor": {"dtype": "DT_FLOAT", "tensorShape": {"dim": [{"size": "144"}]}}}, "dtype": {"type": "DT_FLOAT"}}}, {"name": "StatefulPartitionedCall/sequential/efficientnet-b2/block2c_se_reshape/Reshape/shape/3", "op": "Const", "input": ["^efficientnet_b2_input"], "attr": {"dtype": {"type": "DT_INT32"}, "value": {"tensor": {"dtype": "DT_INT32", "tensorShape": {}}}}}, {"name": "Func/StatefulPartitionedCall/input/_102", "op": "Const", "input": ["^efficientnet_b2_input"], "attr": {"value": {"tensor": {"dtype": "DT_FLOAT", "tensorShape": {"dim": [{"size": "1"}, {"size": "1"}, {"size": "144"}, {"size": "6"}]}}}, "dtype": {"type": "DT_FLOAT"}}}, {"name": "Func/StatefulPartitionedCall/input/_103", "op": "Const", "input": ["^efficientnet_b2_input"], "attr": {"value": {"tensor": {"dtype": "DT_FLOAT", "tensorShape": {"dim": [{"size": "6"}]}}}, "dtype": {"type": "DT_FLOAT"}}}, {"name": "Func/StatefulPartitionedCall/input/_104", "op": "Const", "input": ["^efficientnet_b2_input"], "attr": {"dtype": {"type": "DT_FLOAT"}, "value": {"tensor": {"dtype": "DT_FLOAT", "tensorShape": {"dim": [{"size": "1"}, {"size": "1"}, {"size": "6"}, {"size": "144"}]}}}}}, {"name": "Func/StatefulPartitionedCall/input/_105", "op": "Const", "input": ["^efficientnet_b2_input"], "attr": {"dtype": {"type": "DT_FLOAT"}, "value": {"tensor": {"dtype": "DT_FLOAT", "tensorShape": {"dim": [{"size": "144"}]}}}}}, {"name": "Func/StatefulPartitionedCall/input/_121", "op": "Const", "input": ["^efficientnet_b2_input"], "attr": {"value": {"tensor": {"dtype": "DT_FLOAT", "tensorShape": {"dim": [{"size": "1"}, {"size": "1"}, {"size": "288"}, {"size": "12"}]}}}, "dtype": {"type": "DT_FLOAT"}}}, {"name": "Func/StatefulPartitionedCall/input/_122", "op": "Const", "input": ["^efficientnet_b2_input"], "attr": {"value": {"tensor": {"dtype": "DT_FLOAT", "tensorShape": {"dim": [{"size": "12"}]}}}, "dtype": {"type": "DT_FLOAT"}}}, {"name": "Func/StatefulPartitionedCall/input/_123", "op": "Const", "input": ["^efficientnet_b2_input"], "attr": {"value": {"tensor": {"dtype": "DT_FLOAT", "tensorShape": {"dim": [{"size": "1"}, {"size": "1"}, {"size": "12"}, {"size": "288"}]}}}, "dtype": {"type": "DT_FLOAT"}}}, {"name": "Func/StatefulPartitionedCall/input/_124", "op": "Const", "input": ["^efficientnet_b2_input"], "attr": {"value": {"tensor": {"dtype": "DT_FLOAT", "tensorShape": {"dim": [{"size": "288"}]}}}, "dtype": {"type": "DT_FLOAT"}}}, {"name": "Func/StatefulPartitionedCall/input/_140", "op": "Const", "input": ["^efficientnet_b2_input"], "attr": {"dtype": {"type": "DT_FLOAT"}, "value": {"tensor": {"dtype": "DT_FLOAT", "tensorShape": {"dim": [{"size": "1"}, {"size": "1"}, {"size": "288"}, {"size": "12"}]}}}}}, {"name": "Func/StatefulPartitionedCall/input/_141", "op": "Const", "input": ["^efficientnet_b2_input"], "attr": {"value": {"tensor": {"dtype": "DT_FLOAT", "tensorShape": {"dim": [{"size": "12"}]}}}, "dtype": {"type": "DT_FLOAT"}}}, {"name": "Func/StatefulPartitionedCall/input/_142", "op": "Const", "input": ["^efficientnet_b2_input"], "attr": {"dtype": {"type": "DT_FLOAT"}, "value": {"tensor": {"dtype": "DT_FLOAT", "tensorShape": {"dim": [{"size": "1"}, {"size": "1"}, {"size": "12"}, {"size": "288"}]}}}}}, {"name": "Func/StatefulPartitionedCall/input/_143", "op": "Const", "input": ["^efficientnet_b2_input"], "attr": {"value": {"tensor": {"dtype": "DT_FLOAT", "tensorShape": {"dim": [{"size": "288"}]}}}, "dtype": {"type": "DT_FLOAT"}}}, {"name": "StatefulPartitionedCall/sequential/efficientnet-b2/block3c_se_reshape/Reshape/shape/3", "op": "Const", "input": ["^efficientnet_b2_input"], "attr": {"value": {"tensor": {"dtype": "DT_INT32", "tensorShape": {}}}, "dtype": {"type": "DT_INT32"}}}, {"name": "Func/StatefulPartitionedCall/input/_159", "op": "Const", "input": ["^efficientnet_b2_input"], "attr": {"value": {"tensor": {"dtype": "DT_FLOAT", "tensorShape": {"dim": [{"size": "1"}, {"size": "1"}, {"size": "288"}, {"size": "12"}]}}}, "dtype": {"type": "DT_FLOAT"}}}, {"name": "Func/StatefulPartitionedCall/input/_160", "op": "Const", "input": ["^efficientnet_b2_input"], "attr": {"value": {"tensor": {"dtype": "DT_FLOAT", "tensorShape": {"dim": [{"size": "12"}]}}}, "dtype": {"type": "DT_FLOAT"}}}, {"name": "Func/StatefulPartitionedCall/input/_161", "op": "Const", "input": ["^efficientnet_b2_input"], "attr": {"value": {"tensor": {"dtype": "DT_FLOAT", "tensorShape": {"dim": [{"size": "1"}, {"size": "1"}, {"size": "12"}, {"size": "288"}]}}}, "dtype": {"type": "DT_FLOAT"}}}, {"name": "Func/StatefulPartitionedCall/input/_162", "op": "Const", "input": ["^efficientnet_b2_input"], "attr": {"value": {"tensor": {"dtype": "DT_FLOAT", "tensorShape": {"dim": [{"size": "288"}]}}}, "dtype": {"type": "DT_FLOAT"}}}, {"name": "Func/StatefulPartitionedCall/input/_178", "op": "Const", "input": ["^efficientnet_b2_input"], "attr": {"dtype": {"type": "DT_FLOAT"}, "value": {"tensor": {"dtype": "DT_FLOAT", "tensorShape": {"dim": [{"size": "1"}, {"size": "1"}, {"size": "528"}, {"size": "22"}]}}}}}, {"name": "Func/StatefulPartitionedCall/input/_179", "op": "Const", "input": ["^efficientnet_b2_input"], "attr": {"value": {"tensor": {"dtype": "DT_FLOAT", "tensorShape": {"dim": [{"size": "22"}]}}}, "dtype": {"type": "DT_FLOAT"}}}, {"name": "Func/StatefulPartitionedCall/input/_180", "op": "Const", "input": ["^efficientnet_b2_input"], "attr": {"value": {"tensor": {"dtype": "DT_FLOAT", "tensorShape": {"dim": [{"size": "1"}, {"size": "1"}, {"size": "22"}, {"size": "528"}]}}}, "dtype": {"type": "DT_FLOAT"}}}, {"name": "Func/StatefulPartitionedCall/input/_181", "op": "Const", "input": ["^efficientnet_b2_input"], "attr": {"dtype": {"type": "DT_FLOAT"}, "value": {"tensor": {"dtype": "DT_FLOAT", "tensorShape": {"dim": [{"size": "528"}]}}}}}, {"name": "Func/StatefulPartitionedCall/input/_197", "op": "Const", "input": ["^efficientnet_b2_input"], "attr": {"value": {"tensor": {"dtype": "DT_FLOAT", "tensorShape": {"dim": [{"size": "1"}, {"size": "1"}, {"size": "528"}, {"size": "22"}]}}}, "dtype": {"type": "DT_FLOAT"}}}, {"name": "Func/StatefulPartitionedCall/input/_198", "op": "Const", "input": ["^efficientnet_b2_input"], "attr": {"value": {"tensor": {"dtype": "DT_FLOAT", "tensorShape": {"dim": [{"size": "22"}]}}}, "dtype": {"type": "DT_FLOAT"}}}, {"name": "Func/StatefulPartitionedCall/input/_199", "op": "Const", "input": ["^efficientnet_b2_input"], "attr": {"value": {"tensor": {"dtype": "DT_FLOAT", "tensorShape": {"dim": [{"size": "1"}, {"size": "1"}, {"size": "22"}, {"size": "528"}]}}}, "dtype": {"type": "DT_FLOAT"}}}, {"name": "Func/StatefulPartitionedCall/input/_200", "op": "Const", "input": ["^efficientnet_b2_input"], "attr": {"dtype": {"type": "DT_FLOAT"}, "value": {"tensor": {"dtype": "DT_FLOAT", "tensorShape": {"dim": [{"size": "528"}]}}}}}, {"name": "Func/StatefulPartitionedCall/input/_216", "op": "Const", "input": ["^efficientnet_b2_input"], "attr": {"dtype": {"type": "DT_FLOAT"}, "value": {"tensor": {"dtype": "DT_FLOAT", "tensorShape": {"dim": [{"size": "1"}, {"size": "1"}, {"size": "528"}, {"size": "22"}]}}}}}, {"name": "Func/StatefulPartitionedCall/input/_217", "op": "Const", "input": ["^efficientnet_b2_input"], "attr": {"value": {"tensor": {"dtype": "DT_FLOAT", "tensorShape": {"dim": [{"size": "22"}]}}}, "dtype": {"type": "DT_FLOAT"}}}, {"name": "Func/StatefulPartitionedCall/input/_218", "op": "Const", "input": ["^efficientnet_b2_input"], "attr": {"value": {"tensor": {"dtype": "DT_FLOAT", "tensorShape": {"dim": [{"size": "1"}, {"size": "1"}, {"size": "22"}, {"size": "528"}]}}}, "dtype": {"type": "DT_FLOAT"}}}, {"name": "Func/StatefulPartitionedCall/input/_219", "op": "Const", "input": ["^efficientnet_b2_input"], "attr": {"value": {"tensor": {"dtype": "DT_FLOAT", "tensorShape": {"dim": [{"size": "528"}]}}}, "dtype": {"type": "DT_FLOAT"}}}, {"name": "StatefulPartitionedCall/sequential/efficientnet-b2/block4d_se_reshape/Reshape/shape/3", "op": "Const", "input": ["^efficientnet_b2_input"], "attr": {"dtype": {"type": "DT_INT32"}, "value": {"tensor": {"dtype": "DT_INT32", "tensorShape": {}}}}}, {"name": "Func/StatefulPartitionedCall/input/_235", "op": "Const", "input": ["^efficientnet_b2_input"], "attr": {"value": {"tensor": {"dtype": "DT_FLOAT", "tensorShape": {"dim": [{"size": "1"}, {"size": "1"}, {"size": "528"}, {"size": "22"}]}}}, "dtype": {"type": "DT_FLOAT"}}}, {"name": "Func/StatefulPartitionedCall/input/_236", "op": "Const", "input": ["^efficientnet_b2_input"], "attr": {"value": {"tensor": {"dtype": "DT_FLOAT", "tensorShape": {"dim": [{"size": "22"}]}}}, "dtype": {"type": "DT_FLOAT"}}}, {"name": "Func/StatefulPartitionedCall/input/_237", "op": "Const", "input": ["^efficientnet_b2_input"], "attr": {"dtype": {"type": "DT_FLOAT"}, "value": {"tensor": {"dtype": "DT_FLOAT", "tensorShape": {"dim": [{"size": "1"}, {"size": "1"}, {"size": "22"}, {"size": "528"}]}}}}}, {"name": "Func/StatefulPartitionedCall/input/_238", "op": "Const", "input": ["^efficientnet_b2_input"], "attr": {"value": {"tensor": {"dtype": "DT_FLOAT", "tensorShape": {"dim": [{"size": "528"}]}}}, "dtype": {"type": "DT_FLOAT"}}}, {"name": "Func/StatefulPartitionedCall/input/_254", "op": "Const", "input": ["^efficientnet_b2_input"], "attr": {"value": {"tensor": {"dtype": "DT_FLOAT", "tensorShape": {"dim": [{"size": "1"}, {"size": "1"}, {"size": "720"}, {"size": "30"}]}}}, "dtype": {"type": "DT_FLOAT"}}}, {"name": "Func/StatefulPartitionedCall/input/_255", "op": "Const", "input": ["^efficientnet_b2_input"], "attr": {"dtype": {"type": "DT_FLOAT"}, "value": {"tensor": {"dtype": "DT_FLOAT", "tensorShape": {"dim": [{"size": "30"}]}}}}}, {"name": "Func/StatefulPartitionedCall/input/_256", "op": "Const", "input": ["^efficientnet_b2_input"], "attr": {"value": {"tensor": {"dtype": "DT_FLOAT", "tensorShape": {"dim": [{"size": "1"}, {"size": "1"}, {"size": "30"}, {"size": "720"}]}}}, "dtype": {"type": "DT_FLOAT"}}}, {"name": "Func/StatefulPartitionedCall/input/_257", "op": "Const", "input": ["^efficientnet_b2_input"], "attr": {"dtype": {"type": "DT_FLOAT"}, "value": {"tensor": {"dtype": "DT_FLOAT", "tensorShape": {"dim": [{"size": "720"}]}}}}}, {"name": "Func/StatefulPartitionedCall/input/_273", "op": "Const", "input": ["^efficientnet_b2_input"], "attr": {"value": {"tensor": {"dtype": "DT_FLOAT", "tensorShape": {"dim": [{"size": "1"}, {"size": "1"}, {"size": "720"}, {"size": "30"}]}}}, "dtype": {"type": "DT_FLOAT"}}}, {"name": "Func/StatefulPartitionedCall/input/_274", "op": "Const", "input": ["^efficientnet_b2_input"], "attr": {"dtype": {"type": "DT_FLOAT"}, "value": {"tensor": {"dtype": "DT_FLOAT", "tensorShape": {"dim": [{"size": "30"}]}}}}}, {"name": "Func/StatefulPartitionedCall/input/_275", "op": "Const", "input": ["^efficientnet_b2_input"], "attr": {"dtype": {"type": "DT_FLOAT"}, "value": {"tensor": {"dtype": "DT_FLOAT", "tensorShape": {"dim": [{"size": "1"}, {"size": "1"}, {"size": "30"}, {"size": "720"}]}}}}}, {"name": "Func/StatefulPartitionedCall/input/_276", "op": "Const", "input": ["^efficientnet_b2_input"], "attr": {"value": {"tensor": {"dtype": "DT_FLOAT", "tensorShape": {"dim": [{"size": "720"}]}}}, "dtype": {"type": "DT_FLOAT"}}}, {"name": "Func/StatefulPartitionedCall/input/_292", "op": "Const", "input": ["^efficientnet_b2_input"], "attr": {"value": {"tensor": {"dtype": "DT_FLOAT", "tensorShape": {"dim": [{"size": "1"}, {"size": "1"}, {"size": "720"}, {"size": "30"}]}}}, "dtype": {"type": "DT_FLOAT"}}}, {"name": "Func/StatefulPartitionedCall/input/_293", "op": "Const", "input": ["^efficientnet_b2_input"], "attr": {"value": {"tensor": {"dtype": "DT_FLOAT", "tensorShape": {"dim": [{"size": "30"}]}}}, "dtype": {"type": "DT_FLOAT"}}}, {"name": "Func/StatefulPartitionedCall/input/_294", "op": "Const", "input": ["^efficientnet_b2_input"], "attr": {"dtype": {"type": "DT_FLOAT"}, "value": {"tensor": {"dtype": "DT_FLOAT", "tensorShape": {"dim": [{"size": "1"}, {"size": "1"}, {"size": "30"}, {"size": "720"}]}}}}}, {"name": "Func/StatefulPartitionedCall/input/_295", "op": "Const", "input": ["^efficientnet_b2_input"], "attr": {"value": {"tensor": {"dtype": "DT_FLOAT", "tensorShape": {"dim": [{"size": "720"}]}}}, "dtype": {"type": "DT_FLOAT"}}}, {"name": "StatefulPartitionedCall/sequential/efficientnet-b2/block5d_se_reshape/Reshape/shape/3", "op": "Const", "input": ["^efficientnet_b2_input"], "attr": {"dtype": {"type": "DT_INT32"}, "value": {"tensor": {"dtype": "DT_INT32", "tensorShape": {}}}}}, {"name": "Func/StatefulPartitionedCall/input/_311", "op": "Const", "input": ["^efficientnet_b2_input"], "attr": {"value": {"tensor": {"dtype": "DT_FLOAT", "tensorShape": {"dim": [{"size": "1"}, {"size": "1"}, {"size": "720"}, {"size": "30"}]}}}, "dtype": {"type": "DT_FLOAT"}}}, {"name": "Func/StatefulPartitionedCall/input/_312", "op": "Const", "input": ["^efficientnet_b2_input"], "attr": {"value": {"tensor": {"dtype": "DT_FLOAT", "tensorShape": {"dim": [{"size": "30"}]}}}, "dtype": {"type": "DT_FLOAT"}}}, {"name": "Func/StatefulPartitionedCall/input/_313", "op": "Const", "input": ["^efficientnet_b2_input"], "attr": {"value": {"tensor": {"dtype": "DT_FLOAT", "tensorShape": {"dim": [{"size": "1"}, {"size": "1"}, {"size": "30"}, {"size": "720"}]}}}, "dtype": {"type": "DT_FLOAT"}}}, {"name": "Func/StatefulPartitionedCall/input/_314", "op": "Const", "input": ["^efficientnet_b2_input"], "attr": {"dtype": {"type": "DT_FLOAT"}, "value": {"tensor": {"dtype": "DT_FLOAT", "tensorShape": {"dim": [{"size": "720"}]}}}}}, {"name": "Func/StatefulPartitionedCall/input/_330", "op": "Const", "input": ["^efficientnet_b2_input"], "attr": {"value": {"tensor": {"dtype": "DT_FLOAT", "tensorShape": {"dim": [{"size": "1"}, {"size": "1"}, {"size": "1248"}, {"size": "52"}]}}}, "dtype": {"type": "DT_FLOAT"}}}, {"name": "Func/StatefulPartitionedCall/input/_331", "op": "Const", "input": ["^efficientnet_b2_input"], "attr": {"value": {"tensor": {"dtype": "DT_FLOAT", "tensorShape": {"dim": [{"size": "52"}]}}}, "dtype": {"type": "DT_FLOAT"}}}, {"name": "Func/StatefulPartitionedCall/input/_332", "op": "Const", "input": ["^efficientnet_b2_input"], "attr": {"value": {"tensor": {"dtype": "DT_FLOAT", "tensorShape": {"dim": [{"size": "1"}, {"size": "1"}, {"size": "52"}, {"size": "1248"}]}}}, "dtype": {"type": "DT_FLOAT"}}}, {"name": "Func/StatefulPartitionedCall/input/_333", "op": "Const", "input": ["^efficientnet_b2_input"], "attr": {"value": {"tensor": {"dtype": "DT_FLOAT", "tensorShape": {"dim": [{"size": "1248"}]}}}, "dtype": {"type": "DT_FLOAT"}}}, {"name": "Func/StatefulPartitionedCall/input/_349", "op": "Const", "input": ["^efficientnet_b2_input"], "attr": {"value": {"tensor": {"dtype": "DT_FLOAT", "tensorShape": {"dim": [{"size": "1"}, {"size": "1"}, {"size": "1248"}, {"size": "52"}]}}}, "dtype": {"type": "DT_FLOAT"}}}, {"name": "Func/StatefulPartitionedCall/input/_350", "op": "Const", "input": ["^efficientnet_b2_input"], "attr": {"dtype": {"type": "DT_FLOAT"}, "value": {"tensor": {"dtype": "DT_FLOAT", "tensorShape": {"dim": [{"size": "52"}]}}}}}, {"name": "Func/StatefulPartitionedCall/input/_351", "op": "Const", "input": ["^efficientnet_b2_input"], "attr": {"dtype": {"type": "DT_FLOAT"}, "value": {"tensor": {"dtype": "DT_FLOAT", "tensorShape": {"dim": [{"size": "1"}, {"size": "1"}, {"size": "52"}, {"size": "1248"}]}}}}}, {"name": "Func/StatefulPartitionedCall/input/_352", "op": "Const", "input": ["^efficientnet_b2_input"], "attr": {"value": {"tensor": {"dtype": "DT_FLOAT", "tensorShape": {"dim": [{"size": "1248"}]}}}, "dtype": {"type": "DT_FLOAT"}}}, {"name": "Func/StatefulPartitionedCall/input/_368", "op": "Const", "input": ["^efficientnet_b2_input"], "attr": {"value": {"tensor": {"dtype": "DT_FLOAT", "tensorShape": {"dim": [{"size": "1"}, {"size": "1"}, {"size": "1248"}, {"size": "52"}]}}}, "dtype": {"type": "DT_FLOAT"}}}, {"name": "Func/StatefulPartitionedCall/input/_369", "op": "Const", "input": ["^efficientnet_b2_input"], "attr": {"value": {"tensor": {"dtype": "DT_FLOAT", "tensorShape": {"dim": [{"size": "52"}]}}}, "dtype": {"type": "DT_FLOAT"}}}, {"name": "Func/StatefulPartitionedCall/input/_370", "op": "Const", "input": ["^efficientnet_b2_input"], "attr": {"value": {"tensor": {"dtype": "DT_FLOAT", "tensorShape": {"dim": [{"size": "1"}, {"size": "1"}, {"size": "52"}, {"size": "1248"}]}}}, "dtype": {"type": "DT_FLOAT"}}}, {"name": "Func/StatefulPartitionedCall/input/_371", "op": "Const", "input": ["^efficientnet_b2_input"], "attr": {"value": {"tensor": {"dtype": "DT_FLOAT", "tensorShape": {"dim": [{"size": "1248"}]}}}, "dtype": {"type": "DT_FLOAT"}}}, {"name": "Func/StatefulPartitionedCall/input/_387", "op": "Const", "input": ["^efficientnet_b2_input"], "attr": {"value": {"tensor": {"dtype": "DT_FLOAT", "tensorShape": {"dim": [{"size": "1"}, {"size": "1"}, {"size": "1248"}, {"size": "52"}]}}}, "dtype": {"type": "DT_FLOAT"}}}, {"name": "Func/StatefulPartitionedCall/input/_388", "op": "Const", "input": ["^efficientnet_b2_input"], "attr": {"value": {"tensor": {"dtype": "DT_FLOAT", "tensorShape": {"dim": [{"size": "52"}]}}}, "dtype": {"type": "DT_FLOAT"}}}, {"name": "Func/StatefulPartitionedCall/input/_389", "op": "Const", "input": ["^efficientnet_b2_input"], "attr": {"value": {"tensor": {"dtype": "DT_FLOAT", "tensorShape": {"dim": [{"size": "1"}, {"size": "1"}, {"size": "52"}, {"size": "1248"}]}}}, "dtype": {"type": "DT_FLOAT"}}}, {"name": "Func/StatefulPartitionedCall/input/_390", "op": "Const", "input": ["^efficientnet_b2_input"], "attr": {"dtype": {"type": "DT_FLOAT"}, "value": {"tensor": {"dtype": "DT_FLOAT", "tensorShape": {"dim": [{"size": "1248"}]}}}}}, {"name": "StatefulPartitionedCall/sequential/efficientnet-b2/block6e_se_reshape/Reshape/shape/3", "op": "Const", "input": ["^efficientnet_b2_input"], "attr": {"value": {"tensor": {"dtype": "DT_INT32", "tensorShape": {}}}, "dtype": {"type": "DT_INT32"}}}, {"name": "Func/StatefulPartitionedCall/input/_406", "op": "Const", "input": ["^efficientnet_b2_input"], "attr": {"value": {"tensor": {"dtype": "DT_FLOAT", "tensorShape": {"dim": [{"size": "1"}, {"size": "1"}, {"size": "1248"}, {"size": "52"}]}}}, "dtype": {"type": "DT_FLOAT"}}}, {"name": "Func/StatefulPartitionedCall/input/_407", "op": "Const", "input": ["^efficientnet_b2_input"], "attr": {"value": {"tensor": {"dtype": "DT_FLOAT", "tensorShape": {"dim": [{"size": "52"}]}}}, "dtype": {"type": "DT_FLOAT"}}}, {"name": "Func/StatefulPartitionedCall/input/_408", "op": "Const", "input": ["^efficientnet_b2_input"], "attr": {"value": {"tensor": {"dtype": "DT_FLOAT", "tensorShape": {"dim": [{"size": "1"}, {"size": "1"}, {"size": "52"}, {"size": "1248"}]}}}, "dtype": {"type": "DT_FLOAT"}}}, {"name": "Func/StatefulPartitionedCall/input/_409", "op": "Const", "input": ["^efficientnet_b2_input"], "attr": {"value": {"tensor": {"dtype": "DT_FLOAT", "tensorShape": {"dim": [{"size": "1248"}]}}}, "dtype": {"type": "DT_FLOAT"}}}, {"name": "StatefulPartitionedCall/sequential/efficientnet-b2/block7b_se_reshape/strided_slice/stack", "op": "Const", "input": ["^efficientnet_b2_input"], "attr": {"value": {"tensor": {"dtype": "DT_INT32", "tensorShape": {"dim": [{"size": "1"}]}}}, "dtype": {"type": "DT_INT32"}}}, {"name": "StatefulPartitionedCall/sequential/efficientnet-b2/block7b_se_reshape/strided_slice/stack_1", "op": "Const", "input": ["^efficientnet_b2_input"], "attr": {"value": {"tensor": {"dtype": "DT_INT32", "tensorShape": {"dim": [{"size": "1"}]}}}, "dtype": {"type": "DT_INT32"}}}, {"name": "StatefulPartitionedCall/sequential/efficientnet-b2/block7b_se_reshape/Reshape/shape/1", "op": "Const", "input": ["^efficientnet_b2_input"], "attr": {"dtype": {"type": "DT_INT32"}, "value": {"tensor": {"dtype": "DT_INT32", "tensorShape": {}}}}}, {"name": "StatefulPartitionedCall/sequential/efficientnet-b2/block7b_se_reshape/Reshape/shape/3", "op": "Const", "input": ["^efficientnet_b2_input"], "attr": {"dtype": {"type": "DT_INT32"}, "value": {"tensor": {"dtype": "DT_INT32", "tensorShape": {}}}}}, {"name": "Func/StatefulPartitionedCall/input/_425", "op": "Const", "input": ["^efficientnet_b2_input"], "attr": {"dtype": {"type": "DT_FLOAT"}, "value": {"tensor": {"dtype": "DT_FLOAT", "tensorShape": {"dim": [{"size": "1"}, {"size": "1"}, {"size": "2112"}, {"size": "88"}]}}}}}, {"name": "Func/StatefulPartitionedCall/input/_426", "op": "Const", "input": ["^efficientnet_b2_input"], "attr": {"dtype": {"type": "DT_FLOAT"}, "value": {"tensor": {"dtype": "DT_FLOAT", "tensorShape": {"dim": [{"size": "88"}]}}}}}, {"name": "Func/StatefulPartitionedCall/input/_427", "op": "Const", "input": ["^efficientnet_b2_input"], "attr": {"value": {"tensor": {"dtype": "DT_FLOAT", "tensorShape": {"dim": [{"size": "1"}, {"size": "1"}, {"size": "88"}, {"size": "2112"}]}}}, "dtype": {"type": "DT_FLOAT"}}}, {"name": "Func/StatefulPartitionedCall/input/_428", "op": "Const", "input": ["^efficientnet_b2_input"], "attr": {"value": {"tensor": {"dtype": "DT_FLOAT", "tensorShape": {"dim": [{"size": "2112"}]}}}, "dtype": {"type": "DT_FLOAT"}}}, {"name": "StatefulPartitionedCall/sequential/efficientnet-b2/block7b_se_squeeze/Mean/reduction_indices", "op": "Const", "input": ["^efficientnet_b2_input"], "attr": {"dtype": {"type": "DT_INT32"}, "value": {"tensor": {"dtype": "DT_INT32", "tensorShape": {"dim": [{"size": "2"}]}}}}}, {"name": "Func/StatefulPartitionedCall/input/_439", "op": "Const", "input": ["^efficientnet_b2_input"], "attr": {"dtype": {"type": "DT_FLOAT"}, "value": {"tensor": {"dtype": "DT_FLOAT", "tensorShape": {"dim": [{"size": "1408"}, {"size": "894"}]}}}}}, {"name": "Func/StatefulPartitionedCall/input/_440", "op": "Const", "input": ["^efficientnet_b2_input"], "attr": {"value": {"tensor": {"dtype": "DT_FLOAT", "tensorShape": {"dim": [{"size": "894"}]}}}, "dtype": {"type": "DT_FLOAT"}}}, {"name": "StatefulPartitionedCall/sequential/efficientnet-b2/stem_bn/FusedBatchNormV3", "op": "_FusedConv2D", "input": ["efficientnet_b2_input", "StatefulPartitionedCall/sequential/efficientnet-b2/stem_conv/Conv2D_weights", "StatefulPartitionedCall/sequential/efficientnet-b2/stem_conv/Conv2D_bn_offset"], "device": "/device:CPU:0", "attr": {"T": {"type": "DT_FLOAT"}, "strides": {"list": {"i": ["1", "2", "2", "1"]}}, "data_format": {"s": "TkhXQw=="}, "explicit_paddings": {"list": {}}, "use_cudnn_on_gpu": {"b": true}, "num_args": {"i": "1"}, "epsilon": {"f": 0.0}, "padding": {"s": "U0FNRQ=="}, "fused_ops": {"list": {"s": ["Qmlhc0FkZA=="]}}, "dilations": {"list": {"i": ["1", "1", "1", "1"]}}}}, {"name": "StatefulPartitionedCall/sequential/efficientnet-b2/stem_activation/Sigmoid", "op": "Sigmoid", "input": ["StatefulPartitionedCall/sequential/efficientnet-b2/stem_bn/FusedBatchNormV3"], "attr": {"T": {"type": "DT_FLOAT"}}}, {"name": "StatefulPartitionedCall/sequential/efficientnet-b2/stem_activation/mul", "op": "Mul", "input": ["StatefulPartitionedCall/sequential/efficientnet-b2/stem_activation/Sigmoid", "StatefulPartitionedCall/sequential/efficientnet-b2/stem_bn/FusedBatchNormV3"], "attr": {"T": {"type": "DT_FLOAT"}}}, {"name": "StatefulPartitionedCall/sequential/efficientnet-b2/block1a_dwconv/depthwise", "op": "FusedDepthwiseConv2dNative", "input": ["StatefulPartitionedCall/sequential/efficientnet-b2/stem_activation/mul", "StatefulPartitionedCall/sequential/efficientnet-b2/block1a_dwconv/depthwise_weights", "StatefulPartitionedCall/sequential/efficientnet-b2/block1a_dwconv/depthwise_bn_offset"], "attr": {"fused_ops": {"list": {"s": ["Qmlhc0FkZA=="]}}, "dilations": {"list": {"i": ["1", "1", "1", "1"]}}, "T": {"type": "DT_FLOAT"}, "strides": {"list": {"i": ["1", "1", "1", "1"]}}, "data_format": {"s": "TkhXQw=="}, "num_args": {"i": "1"}, "padding": {"s": "U0FNRQ=="}}}, {"name": "StatefulPartitionedCall/sequential/efficientnet-b2/block1a_activation/Sigmoid", "op": "Sigmoid", "input": ["StatefulPartitionedCall/sequential/efficientnet-b2/block1a_dwconv/depthwise"], "attr": {"T": {"type": "DT_FLOAT"}}}, {"name": "StatefulPartitionedCall/sequential/efficientnet-b2/block1a_activation/mul", "op": "Mul", "input": ["StatefulPartitionedCall/sequential/efficientnet-b2/block1a_activation/Sigmoid", "StatefulPartitionedCall/sequential/efficientnet-b2/block1a_dwconv/depthwise"], "attr": {"T": {"type": "DT_FLOAT"}}}, {"name": "StatefulPartitionedCall/sequential/efficientnet-b2/block1a_se_squeeze/Mean", "op": "Mean", "input": ["StatefulPartitionedCall/sequential/efficientnet-b2/block1a_activation/mul", "StatefulPartitionedCall/sequential/efficientnet-b2/block7b_se_squeeze/Mean/reduction_indices"], "attr": {"keep_dims": {"b": false}, "Tidx": {"type": "DT_INT32"}, "T": {"type": "DT_FLOAT"}}}, {"name": "StatefulPartitionedCall/sequential/efficientnet-b2/block1a_se_reshape/Shape", "op": "Shape", "input": ["StatefulPartitionedCall/sequential/efficientnet-b2/block1a_se_squeeze/Mean"], "attr": {"T": {"type": "DT_FLOAT"}, "out_type": {"type": "DT_INT32"}}}, {"name": "StatefulPartitionedCall/sequential/efficientnet-b2/block1a_se_reshape/strided_slice", "op": "StridedSlice", "input": ["StatefulPartitionedCall/sequential/efficientnet-b2/block1a_se_reshape/Shape", "StatefulPartitionedCall/sequential/efficientnet-b2/block7b_se_reshape/strided_slice/stack", "StatefulPartitionedCall/sequential/efficientnet-b2/block7b_se_reshape/strided_slice/stack_1", "StatefulPartitionedCall/sequential/efficientnet-b2/block7b_se_reshape/strided_slice/stack_1"], "attr": {"end_mask": {"i": "0"}, "T": {"type": "DT_INT32"}, "Index": {"type": "DT_INT32"}, "shrink_axis_mask": {"i": "1"}, "begin_mask": {"i": "0"}, "ellipsis_mask": {"i": "0"}, "new_axis_mask": {"i": "0"}}}, {"name": "StatefulPartitionedCall/sequential/efficientnet-b2/block1a_se_reshape/Reshape/shape", "op": "Pack", "input": ["StatefulPartitionedCall/sequential/efficientnet-b2/block1a_se_reshape/strided_slice", "StatefulPartitionedCall/sequential/efficientnet-b2/block7b_se_reshape/Reshape/shape/1", "StatefulPartitionedCall/sequential/efficientnet-b2/block7b_se_reshape/Reshape/shape/1", "StatefulPartitionedCall/sequential/efficientnet-b2/block1a_se_reshape/Reshape/shape/3"], "attr": {"T": {"type": "DT_INT32"}, "axis": {"i": "0"}, "N": {"i": "4"}}}, {"name": "StatefulPartitionedCall/sequential/efficientnet-b2/block1a_se_reshape/Reshape", "op": "Reshape", "input": ["StatefulPartitionedCall/sequential/efficientnet-b2/block1a_se_squeeze/Mean", "StatefulPartitionedCall/sequential/efficientnet-b2/block1a_se_reshape/Reshape/shape"], "attr": {"T": {"type": "DT_FLOAT"}, "Tshape": {"type": "DT_INT32"}}}, {"name": "StatefulPartitionedCall/sequential/efficientnet-b2/block1a_se_reduce/BiasAdd", "op": "_FusedConv2D", "input": ["StatefulPartitionedCall/sequential/efficientnet-b2/block1a_se_reshape/Reshape", "Func/StatefulPartitionedCall/input/_12", "Func/StatefulPartitionedCall/input/_13"], "device": "/device:CPU:0", "attr": {"dilations": {"list": {"i": ["1", "1", "1", "1"]}}, "T": {"type": "DT_FLOAT"}, "strides": {"list": {"i": ["1", "1", "1", "1"]}}, "data_format": {"s": "TkhXQw=="}, "use_cudnn_on_gpu": {"b": true}, "explicit_paddings": {"list": {}}, "num_args": {"i": "1"}, "epsilon": {"f": 0.0}, "padding": {"s": "U0FNRQ=="}, "fused_ops": {"list": {"s": ["Qmlhc0FkZA=="]}}}}, {"name": "StatefulPartitionedCall/sequential/efficientnet-b2/block1a_se_reduce/Sigmoid", "op": "Sigmoid", "input": ["StatefulPartitionedCall/sequential/efficientnet-b2/block1a_se_reduce/BiasAdd"], "attr": {"T": {"type": "DT_FLOAT"}}}, {"name": "StatefulPartitionedCall/sequential/efficientnet-b2/block1a_se_reduce/mul", "op": "Mul", "input": ["StatefulPartitionedCall/sequential/efficientnet-b2/block1a_se_reduce/BiasAdd", "StatefulPartitionedCall/sequential/efficientnet-b2/block1a_se_reduce/Sigmoid"], "attr": {"T": {"type": "DT_FLOAT"}}}, {"name": "StatefulPartitionedCall/sequential/efficientnet-b2/block1a_se_expand/BiasAdd", "op": "_FusedConv2D", "input": ["StatefulPartitionedCall/sequential/efficientnet-b2/block1a_se_reduce/mul", "Func/StatefulPartitionedCall/input/_14", "Func/StatefulPartitionedCall/input/_15"], "device": "/device:CPU:0", "attr": {"data_format": {"s": "TkhXQw=="}, "strides": {"list": {"i": ["1", "1", "1", "1"]}}, "explicit_paddings": {"list": {}}, "use_cudnn_on_gpu": {"b": true}, "num_args": {"i": "1"}, "epsilon": {"f": 0.0}, "padding": {"s": "U0FNRQ=="}, "fused_ops": {"list": {"s": ["Qmlhc0FkZA=="]}}, "dilations": {"list": {"i": ["1", "1", "1", "1"]}}, "T": {"type": "DT_FLOAT"}}}, {"name": "StatefulPartitionedCall/sequential/efficientnet-b2/block1a_se_expand/Sigmoid", "op": "Sigmoid", "input": ["StatefulPartitionedCall/sequential/efficientnet-b2/block1a_se_expand/BiasAdd"], "attr": {"T": {"type": "DT_FLOAT"}}}, {"name": "StatefulPartitionedCall/sequential/efficientnet-b2/block1a_se_excite/mul", "op": "Mul", "input": ["StatefulPartitionedCall/sequential/efficientnet-b2/block1a_activation/mul", "StatefulPartitionedCall/sequential/efficientnet-b2/block1a_se_expand/Sigmoid"], "attr": {"T": {"type": "DT_FLOAT"}}}, {"name": "StatefulPartitionedCall/sequential/efficientnet-b2/block1a_project_bn/FusedBatchNormV3", "op": "_FusedConv2D", "input": ["StatefulPartitionedCall/sequential/efficientnet-b2/block1a_se_excite/mul", "StatefulPartitionedCall/sequential/efficientnet-b2/block1a_project_conv/Conv2D_weights", "StatefulPartitionedCall/sequential/efficientnet-b2/block1a_project_conv/Conv2D_bn_offset"], "device": "/device:CPU:0", "attr": {"data_format": {"s": "TkhXQw=="}, "strides": {"list": {"i": ["1", "1", "1", "1"]}}, "explicit_paddings": {"list": {}}, "use_cudnn_on_gpu": {"b": true}, "num_args": {"i": "1"}, "epsilon": {"f": 0.0}, "padding": {"s": "U0FNRQ=="}, "fused_ops": {"list": {"s": ["Qmlhc0FkZA=="]}}, "dilations": {"list": {"i": ["1", "1", "1", "1"]}}, "T": {"type": "DT_FLOAT"}}}, {"name": "StatefulPartitionedCall/sequential/efficientnet-b2/block1b_dwconv/depthwise", "op": "FusedDepthwiseConv2dNative", "input": ["StatefulPartitionedCall/sequential/efficientnet-b2/block1a_project_bn/FusedBatchNormV3", "StatefulPartitionedCall/sequential/efficientnet-b2/block1b_dwconv/depthwise_weights", "StatefulPartitionedCall/sequential/efficientnet-b2/block1b_dwconv/depthwise_bn_offset"], "attr": {"dilations": {"list": {"i": ["1", "1", "1", "1"]}}, "T": {"type": "DT_FLOAT"}, "data_format": {"s": "TkhXQw=="}, "strides": {"list": {"i": ["1", "1", "1", "1"]}}, "num_args": {"i": "1"}, "padding": {"s": "U0FNRQ=="}, "fused_ops": {"list": {"s": ["Qmlhc0FkZA=="]}}}}, {"name": "StatefulPartitionedCall/sequential/efficientnet-b2/block1b_activation/Sigmoid", "op": "Sigmoid", "input": ["StatefulPartitionedCall/sequential/efficientnet-b2/block1b_dwconv/depthwise"], "attr": {"T": {"type": "DT_FLOAT"}}}, {"name": "StatefulPartitionedCall/sequential/efficientnet-b2/block1b_activation/mul", "op": "Mul", "input": ["StatefulPartitionedCall/sequential/efficientnet-b2/block1b_activation/Sigmoid", "StatefulPartitionedCall/sequential/efficientnet-b2/block1b_dwconv/depthwise"], "attr": {"T": {"type": "DT_FLOAT"}}}, {"name": "StatefulPartitionedCall/sequential/efficientnet-b2/block1b_se_squeeze/Mean", "op": "Mean", "input": ["StatefulPartitionedCall/sequential/efficientnet-b2/block1b_activation/mul", "StatefulPartitionedCall/sequential/efficientnet-b2/block7b_se_squeeze/Mean/reduction_indices"], "attr": {"keep_dims": {"b": false}, "Tidx": {"type": "DT_INT32"}, "T": {"type": "DT_FLOAT"}}}, {"name": "StatefulPartitionedCall/sequential/efficientnet-b2/block1b_se_reshape/Shape", "op": "Shape", "input": ["StatefulPartitionedCall/sequential/efficientnet-b2/block1b_se_squeeze/Mean"], "attr": {"T": {"type": "DT_FLOAT"}, "out_type": {"type": "DT_INT32"}}}, {"name": "StatefulPartitionedCall/sequential/efficientnet-b2/block1b_se_reshape/strided_slice", "op": "StridedSlice", "input": ["StatefulPartitionedCall/sequential/efficientnet-b2/block1b_se_reshape/Shape", "StatefulPartitionedCall/sequential/efficientnet-b2/block7b_se_reshape/strided_slice/stack", "StatefulPartitionedCall/sequential/efficientnet-b2/block7b_se_reshape/strided_slice/stack_1", "StatefulPartitionedCall/sequential/efficientnet-b2/block7b_se_reshape/strided_slice/stack_1"], "attr": {"end_mask": {"i": "0"}, "Index": {"type": "DT_INT32"}, "T": {"type": "DT_INT32"}, "shrink_axis_mask": {"i": "1"}, "begin_mask": {"i": "0"}, "ellipsis_mask": {"i": "0"}, "new_axis_mask": {"i": "0"}}}, {"name": "StatefulPartitionedCall/sequential/efficientnet-b2/block1b_se_reshape/Reshape/shape", "op": "Pack", "input": ["StatefulPartitionedCall/sequential/efficientnet-b2/block1b_se_reshape/strided_slice", "StatefulPartitionedCall/sequential/efficientnet-b2/block7b_se_reshape/Reshape/shape/1", "StatefulPartitionedCall/sequential/efficientnet-b2/block7b_se_reshape/Reshape/shape/1", "StatefulPartitionedCall/sequential/efficientnet-b2/block1b_se_reshape/Reshape/shape/3"], "attr": {"T": {"type": "DT_INT32"}, "axis": {"i": "0"}, "N": {"i": "4"}}}, {"name": "StatefulPartitionedCall/sequential/efficientnet-b2/block1b_se_reshape/Reshape", "op": "Reshape", "input": ["StatefulPartitionedCall/sequential/efficientnet-b2/block1b_se_squeeze/Mean", "StatefulPartitionedCall/sequential/efficientnet-b2/block1b_se_reshape/Reshape/shape"], "attr": {"T": {"type": "DT_FLOAT"}, "Tshape": {"type": "DT_INT32"}}}, {"name": "StatefulPartitionedCall/sequential/efficientnet-b2/block1b_se_reduce/BiasAdd", "op": "_FusedConv2D", "input": ["StatefulPartitionedCall/sequential/efficientnet-b2/block1b_se_reshape/Reshape", "Func/StatefulPartitionedCall/input/_26", "Func/StatefulPartitionedCall/input/_27"], "device": "/device:CPU:0", "attr": {"fused_ops": {"list": {"s": ["Qmlhc0FkZA=="]}}, "dilations": {"list": {"i": ["1", "1", "1", "1"]}}, "T": {"type": "DT_FLOAT"}, "data_format": {"s": "TkhXQw=="}, "strides": {"list": {"i": ["1", "1", "1", "1"]}}, "explicit_paddings": {"list": {}}, "use_cudnn_on_gpu": {"b": true}, "num_args": {"i": "1"}, "epsilon": {"f": 0.0}, "padding": {"s": "U0FNRQ=="}}}, {"name": "StatefulPartitionedCall/sequential/efficientnet-b2/block1b_se_reduce/Sigmoid", "op": "Sigmoid", "input": ["StatefulPartitionedCall/sequential/efficientnet-b2/block1b_se_reduce/BiasAdd"], "attr": {"T": {"type": "DT_FLOAT"}}}, {"name": "StatefulPartitionedCall/sequential/efficientnet-b2/block1b_se_reduce/mul", "op": "Mul", "input": ["StatefulPartitionedCall/sequential/efficientnet-b2/block1b_se_reduce/BiasAdd", "StatefulPartitionedCall/sequential/efficientnet-b2/block1b_se_reduce/Sigmoid"], "attr": {"T": {"type": "DT_FLOAT"}}}, {"name": "StatefulPartitionedCall/sequential/efficientnet-b2/block1b_se_expand/BiasAdd", "op": "_FusedConv2D", "input": ["StatefulPartitionedCall/sequential/efficientnet-b2/block1b_se_reduce/mul", "Func/StatefulPartitionedCall/input/_28", "Func/StatefulPartitionedCall/input/_29"], "device": "/device:CPU:0", "attr": {"T": {"type": "DT_FLOAT"}, "data_format": {"s": "TkhXQw=="}, "strides": {"list": {"i": ["1", "1", "1", "1"]}}, "use_cudnn_on_gpu": {"b": true}, "explicit_paddings": {"list": {}}, "num_args": {"i": "1"}, "epsilon": {"f": 0.0}, "padding": {"s": "U0FNRQ=="}, "fused_ops": {"list": {"s": ["Qmlhc0FkZA=="]}}, "dilations": {"list": {"i": ["1", "1", "1", "1"]}}}}, {"name": "StatefulPartitionedCall/sequential/efficientnet-b2/block1b_se_expand/Sigmoid", "op": "Sigmoid", "input": ["StatefulPartitionedCall/sequential/efficientnet-b2/block1b_se_expand/BiasAdd"], "attr": {"T": {"type": "DT_FLOAT"}}}, {"name": "StatefulPartitionedCall/sequential/efficientnet-b2/block1b_se_excite/mul", "op": "Mul", "input": ["StatefulPartitionedCall/sequential/efficientnet-b2/block1b_activation/mul", "StatefulPartitionedCall/sequential/efficientnet-b2/block1b_se_expand/Sigmoid"], "attr": {"T": {"type": "DT_FLOAT"}}}, {"name": "StatefulPartitionedCall/sequential/efficientnet-b2/block1b_project_bn/FusedBatchNormV3", "op": "_FusedConv2D", "input": ["StatefulPartitionedCall/sequential/efficientnet-b2/block1b_se_excite/mul", "StatefulPartitionedCall/sequential/efficientnet-b2/block1b_project_conv/Conv2D_weights", "StatefulPartitionedCall/sequential/efficientnet-b2/block1b_project_conv/Conv2D_bn_offset"], "device": "/device:CPU:0", "attr": {"T": {"type": "DT_FLOAT"}, "strides": {"list": {"i": ["1", "1", "1", "1"]}}, "data_format": {"s": "TkhXQw=="}, "use_cudnn_on_gpu": {"b": true}, "explicit_paddings": {"list": {}}, "num_args": {"i": "1"}, "epsilon": {"f": 0.0}, "padding": {"s": "U0FNRQ=="}, "fused_ops": {"list": {"s": ["Qmlhc0FkZA=="]}}, "dilations": {"list": {"i": ["1", "1", "1", "1"]}}}}, {"name": "StatefulPartitionedCall/sequential/efficientnet-b2/block1b_add/add", "op": "AddV2", "input": ["StatefulPartitionedCall/sequential/efficientnet-b2/block1a_project_bn/FusedBatchNormV3", "StatefulPartitionedCall/sequential/efficientnet-b2/block1b_project_bn/FusedBatchNormV3"], "attr": {"T": {"type": "DT_FLOAT"}}}, {"name": "StatefulPartitionedCall/sequential/efficientnet-b2/block2a_expand_bn/FusedBatchNormV3", "op": "_FusedConv2D", "input": ["StatefulPartitionedCall/sequential/efficientnet-b2/block1b_add/add", "StatefulPartitionedCall/sequential/efficientnet-b2/block2a_expand_conv/Conv2D_weights", "StatefulPartitionedCall/sequential/efficientnet-b2/block2a_expand_conv/Conv2D_bn_offset"], "device": "/device:CPU:0", "attr": {"dilations": {"list": {"i": ["1", "1", "1", "1"]}}, "T": {"type": "DT_FLOAT"}, "strides": {"list": {"i": ["1", "1", "1", "1"]}}, "data_format": {"s": "TkhXQw=="}, "explicit_paddings": {"list": {}}, "use_cudnn_on_gpu": {"b": true}, "num_args": {"i": "1"}, "epsilon": {"f": 0.0}, "padding": {"s": "U0FNRQ=="}, "fused_ops": {"list": {"s": ["Qmlhc0FkZA=="]}}}}, {"name": "StatefulPartitionedCall/sequential/efficientnet-b2/block2a_expand_activation/Sigmoid", "op": "Sigmoid", "input": ["StatefulPartitionedCall/sequential/efficientnet-b2/block2a_expand_bn/FusedBatchNormV3"], "attr": {"T": {"type": "DT_FLOAT"}}}, {"name": "StatefulPartitionedCall/sequential/efficientnet-b2/block2a_expand_activation/mul", "op": "Mul", "input": ["StatefulPartitionedCall/sequential/efficientnet-b2/block2a_expand_activation/Sigmoid", "StatefulPartitionedCall/sequential/efficientnet-b2/block2a_expand_bn/FusedBatchNormV3"], "attr": {"T": {"type": "DT_FLOAT"}}}, {"name": "StatefulPartitionedCall/sequential/efficientnet-b2/block2a_dwconv/depthwise", "op": "FusedDepthwiseConv2dNative", "input": ["StatefulPartitionedCall/sequential/efficientnet-b2/block2a_expand_activation/mul", "StatefulPartitionedCall/sequential/efficientnet-b2/block2a_dwconv/depthwise_weights", "StatefulPartitionedCall/sequential/efficientnet-b2/block2a_dwconv/depthwise_bn_offset"], "attr": {"dilations": {"list": {"i": ["1", "1", "1", "1"]}}, "T": {"type": "DT_FLOAT"}, "data_format": {"s": "TkhXQw=="}, "strides": {"list": {"i": ["1", "2", "2", "1"]}}, "num_args": {"i": "1"}, "padding": {"s": "U0FNRQ=="}, "fused_ops": {"list": {"s": ["Qmlhc0FkZA=="]}}}}, {"name": "StatefulPartitionedCall/sequential/efficientnet-b2/block2a_activation/Sigmoid", "op": "Sigmoid", "input": ["StatefulPartitionedCall/sequential/efficientnet-b2/block2a_dwconv/depthwise"], "attr": {"T": {"type": "DT_FLOAT"}}}, {"name": "StatefulPartitionedCall/sequential/efficientnet-b2/block2a_activation/mul", "op": "Mul", "input": ["StatefulPartitionedCall/sequential/efficientnet-b2/block2a_activation/Sigmoid", "StatefulPartitionedCall/sequential/efficientnet-b2/block2a_dwconv/depthwise"], "attr": {"T": {"type": "DT_FLOAT"}}}, {"name": "StatefulPartitionedCall/sequential/efficientnet-b2/block2a_se_squeeze/Mean", "op": "Mean", "input": ["StatefulPartitionedCall/sequential/efficientnet-b2/block2a_activation/mul", "StatefulPartitionedCall/sequential/efficientnet-b2/block7b_se_squeeze/Mean/reduction_indices"], "attr": {"T": {"type": "DT_FLOAT"}, "keep_dims": {"b": false}, "Tidx": {"type": "DT_INT32"}}}, {"name": "StatefulPartitionedCall/sequential/efficientnet-b2/block2a_se_reshape/Shape", "op": "Shape", "input": ["StatefulPartitionedCall/sequential/efficientnet-b2/block2a_se_squeeze/Mean"], "attr": {"T": {"type": "DT_FLOAT"}, "out_type": {"type": "DT_INT32"}}}, {"name": "StatefulPartitionedCall/sequential/efficientnet-b2/block2a_se_reshape/strided_slice", "op": "StridedSlice", "input": ["StatefulPartitionedCall/sequential/efficientnet-b2/block2a_se_reshape/Shape", "StatefulPartitionedCall/sequential/efficientnet-b2/block7b_se_reshape/strided_slice/stack", "StatefulPartitionedCall/sequential/efficientnet-b2/block7b_se_reshape/strided_slice/stack_1", "StatefulPartitionedCall/sequential/efficientnet-b2/block7b_se_reshape/strided_slice/stack_1"], "attr": {"shrink_axis_mask": {"i": "1"}, "begin_mask": {"i": "0"}, "ellipsis_mask": {"i": "0"}, "new_axis_mask": {"i": "0"}, "end_mask": {"i": "0"}, "Index": {"type": "DT_INT32"}, "T": {"type": "DT_INT32"}}}, {"name": "StatefulPartitionedCall/sequential/efficientnet-b2/block2a_se_reshape/Reshape/shape", "op": "Pack", "input": ["StatefulPartitionedCall/sequential/efficientnet-b2/block2a_se_reshape/strided_slice", "StatefulPartitionedCall/sequential/efficientnet-b2/block7b_se_reshape/Reshape/shape/1", "StatefulPartitionedCall/sequential/efficientnet-b2/block7b_se_reshape/Reshape/shape/1", "StatefulPartitionedCall/sequential/efficientnet-b2/block2a_se_reshape/Reshape/shape/3"], "attr": {"T": {"type": "DT_INT32"}, "axis": {"i": "0"}, "N": {"i": "4"}}}, {"name": "StatefulPartitionedCall/sequential/efficientnet-b2/block2a_se_reshape/Reshape", "op": "Reshape", "input": ["StatefulPartitionedCall/sequential/efficientnet-b2/block2a_se_squeeze/Mean", "StatefulPartitionedCall/sequential/efficientnet-b2/block2a_se_reshape/Reshape/shape"], "attr": {"T": {"type": "DT_FLOAT"}, "Tshape": {"type": "DT_INT32"}}}, {"name": "StatefulPartitionedCall/sequential/efficientnet-b2/block2a_se_reduce/BiasAdd", "op": "_FusedConv2D", "input": ["StatefulPartitionedCall/sequential/efficientnet-b2/block2a_se_reshape/Reshape", "Func/StatefulPartitionedCall/input/_45", "Func/StatefulPartitionedCall/input/_46"], "device": "/device:CPU:0", "attr": {"dilations": {"list": {"i": ["1", "1", "1", "1"]}}, "T": {"type": "DT_FLOAT"}, "strides": {"list": {"i": ["1", "1", "1", "1"]}}, "data_format": {"s": "TkhXQw=="}, "use_cudnn_on_gpu": {"b": true}, "explicit_paddings": {"list": {}}, "num_args": {"i": "1"}, "epsilon": {"f": 0.0}, "padding": {"s": "U0FNRQ=="}, "fused_ops": {"list": {"s": ["Qmlhc0FkZA=="]}}}}, {"name": "StatefulPartitionedCall/sequential/efficientnet-b2/block2a_se_reduce/Sigmoid", "op": "Sigmoid", "input": ["StatefulPartitionedCall/sequential/efficientnet-b2/block2a_se_reduce/BiasAdd"], "attr": {"T": {"type": "DT_FLOAT"}}}, {"name": "StatefulPartitionedCall/sequential/efficientnet-b2/block2a_se_reduce/mul", "op": "Mul", "input": ["StatefulPartitionedCall/sequential/efficientnet-b2/block2a_se_reduce/BiasAdd", "StatefulPartitionedCall/sequential/efficientnet-b2/block2a_se_reduce/Sigmoid"], "attr": {"T": {"type": "DT_FLOAT"}}}, {"name": "StatefulPartitionedCall/sequential/efficientnet-b2/block2a_se_expand/BiasAdd", "op": "_FusedConv2D", "input": ["StatefulPartitionedCall/sequential/efficientnet-b2/block2a_se_reduce/mul", "Func/StatefulPartitionedCall/input/_47", "Func/StatefulPartitionedCall/input/_48"], "device": "/device:CPU:0", "attr": {"strides": {"list": {"i": ["1", "1", "1", "1"]}}, "data_format": {"s": "TkhXQw=="}, "use_cudnn_on_gpu": {"b": true}, "explicit_paddings": {"list": {}}, "num_args": {"i": "1"}, "epsilon": {"f": 0.0}, "padding": {"s": "U0FNRQ=="}, "fused_ops": {"list": {"s": ["Qmlhc0FkZA=="]}}, "dilations": {"list": {"i": ["1", "1", "1", "1"]}}, "T": {"type": "DT_FLOAT"}}}, {"name": "StatefulPartitionedCall/sequential/efficientnet-b2/block2a_se_expand/Sigmoid", "op": "Sigmoid", "input": ["StatefulPartitionedCall/sequential/efficientnet-b2/block2a_se_expand/BiasAdd"], "attr": {"T": {"type": "DT_FLOAT"}}}, {"name": "StatefulPartitionedCall/sequential/efficientnet-b2/block2a_se_excite/mul", "op": "Mul", "input": ["StatefulPartitionedCall/sequential/efficientnet-b2/block2a_activation/mul", "StatefulPartitionedCall/sequential/efficientnet-b2/block2a_se_expand/Sigmoid"], "attr": {"T": {"type": "DT_FLOAT"}}}, {"name": "StatefulPartitionedCall/sequential/efficientnet-b2/block2a_project_bn/FusedBatchNormV3", "op": "_FusedConv2D", "input": ["StatefulPartitionedCall/sequential/efficientnet-b2/block2a_se_excite/mul", "StatefulPartitionedCall/sequential/efficientnet-b2/block2a_project_conv/Conv2D_weights", "StatefulPartitionedCall/sequential/efficientnet-b2/block2a_project_conv/Conv2D_bn_offset"], "device": "/device:CPU:0", "attr": {"T": {"type": "DT_FLOAT"}, "strides": {"list": {"i": ["1", "1", "1", "1"]}}, "data_format": {"s": "TkhXQw=="}, "use_cudnn_on_gpu": {"b": true}, "explicit_paddings": {"list": {}}, "num_args": {"i": "1"}, "epsilon": {"f": 0.0}, "padding": {"s": "U0FNRQ=="}, "fused_ops": {"list": {"s": ["Qmlhc0FkZA=="]}}, "dilations": {"list": {"i": ["1", "1", "1", "1"]}}}}, {"name": "StatefulPartitionedCall/sequential/efficientnet-b2/block2b_expand_bn/FusedBatchNormV3", "op": "_FusedConv2D", "input": ["StatefulPartitionedCall/sequential/efficientnet-b2/block2a_project_bn/FusedBatchNormV3", "StatefulPartitionedCall/sequential/efficientnet-b2/block2b_expand_conv/Conv2D_weights", "StatefulPartitionedCall/sequential/efficientnet-b2/block2b_expand_conv/Conv2D_bn_offset"], "device": "/device:CPU:0", "attr": {"dilations": {"list": {"i": ["1", "1", "1", "1"]}}, "T": {"type": "DT_FLOAT"}, "strides": {"list": {"i": ["1", "1", "1", "1"]}}, "data_format": {"s": "TkhXQw=="}, "use_cudnn_on_gpu": {"b": true}, "explicit_paddings": {"list": {}}, "num_args": {"i": "1"}, "epsilon": {"f": 0.0}, "padding": {"s": "U0FNRQ=="}, "fused_ops": {"list": {"s": ["Qmlhc0FkZA=="]}}}}, {"name": "StatefulPartitionedCall/sequential/efficientnet-b2/block2b_expand_activation/Sigmoid", "op": "Sigmoid", "input": ["StatefulPartitionedCall/sequential/efficientnet-b2/block2b_expand_bn/FusedBatchNormV3"], "attr": {"T": {"type": "DT_FLOAT"}}}, {"name": "StatefulPartitionedCall/sequential/efficientnet-b2/block2b_expand_activation/mul", "op": "Mul", "input": ["StatefulPartitionedCall/sequential/efficientnet-b2/block2b_expand_activation/Sigmoid", "StatefulPartitionedCall/sequential/efficientnet-b2/block2b_expand_bn/FusedBatchNormV3"], "attr": {"T": {"type": "DT_FLOAT"}}}, {"name": "StatefulPartitionedCall/sequential/efficientnet-b2/block2b_dwconv/depthwise", "op": "FusedDepthwiseConv2dNative", "input": ["StatefulPartitionedCall/sequential/efficientnet-b2/block2b_expand_activation/mul", "StatefulPartitionedCall/sequential/efficientnet-b2/block2b_dwconv/depthwise_weights", "StatefulPartitionedCall/sequential/efficientnet-b2/block2b_dwconv/depthwise_bn_offset"], "attr": {"num_args": {"i": "1"}, "padding": {"s": "U0FNRQ=="}, "fused_ops": {"list": {"s": ["Qmlhc0FkZA=="]}}, "dilations": {"list": {"i": ["1", "1", "1", "1"]}}, "T": {"type": "DT_FLOAT"}, "strides": {"list": {"i": ["1", "1", "1", "1"]}}, "data_format": {"s": "TkhXQw=="}}}, {"name": "StatefulPartitionedCall/sequential/efficientnet-b2/block2b_activation/Sigmoid", "op": "Sigmoid", "input": ["StatefulPartitionedCall/sequential/efficientnet-b2/block2b_dwconv/depthwise"], "attr": {"T": {"type": "DT_FLOAT"}}}, {"name": "StatefulPartitionedCall/sequential/efficientnet-b2/block2b_activation/mul", "op": "Mul", "input": ["StatefulPartitionedCall/sequential/efficientnet-b2/block2b_activation/Sigmoid", "StatefulPartitionedCall/sequential/efficientnet-b2/block2b_dwconv/depthwise"], "attr": {"T": {"type": "DT_FLOAT"}}}, {"name": "StatefulPartitionedCall/sequential/efficientnet-b2/block2b_se_squeeze/Mean", "op": "Mean", "input": ["StatefulPartitionedCall/sequential/efficientnet-b2/block2b_activation/mul", "StatefulPartitionedCall/sequential/efficientnet-b2/block7b_se_squeeze/Mean/reduction_indices"], "attr": {"keep_dims": {"b": false}, "Tidx": {"type": "DT_INT32"}, "T": {"type": "DT_FLOAT"}}}, {"name": "StatefulPartitionedCall/sequential/efficientnet-b2/block2b_se_reshape/Shape", "op": "Shape", "input": ["StatefulPartitionedCall/sequential/efficientnet-b2/block2b_se_squeeze/Mean"], "attr": {"T": {"type": "DT_FLOAT"}, "out_type": {"type": "DT_INT32"}}}, {"name": "StatefulPartitionedCall/sequential/efficientnet-b2/block2b_se_reshape/strided_slice", "op": "StridedSlice", "input": ["StatefulPartitionedCall/sequential/efficientnet-b2/block2b_se_reshape/Shape", "StatefulPartitionedCall/sequential/efficientnet-b2/block7b_se_reshape/strided_slice/stack", "StatefulPartitionedCall/sequential/efficientnet-b2/block7b_se_reshape/strided_slice/stack_1", "StatefulPartitionedCall/sequential/efficientnet-b2/block7b_se_reshape/strided_slice/stack_1"], "attr": {"Index": {"type": "DT_INT32"}, "T": {"type": "DT_INT32"}, "shrink_axis_mask": {"i": "1"}, "begin_mask": {"i": "0"}, "ellipsis_mask": {"i": "0"}, "new_axis_mask": {"i": "0"}, "end_mask": {"i": "0"}}}, {"name": "StatefulPartitionedCall/sequential/efficientnet-b2/block2b_se_reshape/Reshape/shape", "op": "Pack", "input": ["StatefulPartitionedCall/sequential/efficientnet-b2/block2b_se_reshape/strided_slice", "StatefulPartitionedCall/sequential/efficientnet-b2/block7b_se_reshape/Reshape/shape/1", "StatefulPartitionedCall/sequential/efficientnet-b2/block7b_se_reshape/Reshape/shape/1", "StatefulPartitionedCall/sequential/efficientnet-b2/block2c_se_reshape/Reshape/shape/3"], "attr": {"T": {"type": "DT_INT32"}, "axis": {"i": "0"}, "N": {"i": "4"}}}, {"name": "StatefulPartitionedCall/sequential/efficientnet-b2/block2b_se_reshape/Reshape", "op": "Reshape", "input": ["StatefulPartitionedCall/sequential/efficientnet-b2/block2b_se_squeeze/Mean", "StatefulPartitionedCall/sequential/efficientnet-b2/block2b_se_reshape/Reshape/shape"], "attr": {"T": {"type": "DT_FLOAT"}, "Tshape": {"type": "DT_INT32"}}}, {"name": "StatefulPartitionedCall/sequential/efficientnet-b2/block2b_se_reduce/BiasAdd", "op": "_FusedConv2D", "input": ["StatefulPartitionedCall/sequential/efficientnet-b2/block2b_se_reshape/Reshape", "Func/StatefulPartitionedCall/input/_64", "Func/StatefulPartitionedCall/input/_65"], "device": "/device:CPU:0", "attr": {"strides": {"list": {"i": ["1", "1", "1", "1"]}}, "data_format": {"s": "TkhXQw=="}, "use_cudnn_on_gpu": {"b": true}, "explicit_paddings": {"list": {}}, "num_args": {"i": "1"}, "epsilon": {"f": 0.0}, "padding": {"s": "U0FNRQ=="}, "fused_ops": {"list": {"s": ["Qmlhc0FkZA=="]}}, "dilations": {"list": {"i": ["1", "1", "1", "1"]}}, "T": {"type": "DT_FLOAT"}}}, {"name": "StatefulPartitionedCall/sequential/efficientnet-b2/block2b_se_reduce/Sigmoid", "op": "Sigmoid", "input": ["StatefulPartitionedCall/sequential/efficientnet-b2/block2b_se_reduce/BiasAdd"], "attr": {"T": {"type": "DT_FLOAT"}}}, {"name": "StatefulPartitionedCall/sequential/efficientnet-b2/block2b_se_reduce/mul", "op": "Mul", "input": ["StatefulPartitionedCall/sequential/efficientnet-b2/block2b_se_reduce/BiasAdd", "StatefulPartitionedCall/sequential/efficientnet-b2/block2b_se_reduce/Sigmoid"], "attr": {"T": {"type": "DT_FLOAT"}}}, {"name": "StatefulPartitionedCall/sequential/efficientnet-b2/block2b_se_expand/BiasAdd", "op": "_FusedConv2D", "input": ["StatefulPartitionedCall/sequential/efficientnet-b2/block2b_se_reduce/mul", "Func/StatefulPartitionedCall/input/_66", "Func/StatefulPartitionedCall/input/_67"], "device": "/device:CPU:0", "attr": {"dilations": {"list": {"i": ["1", "1", "1", "1"]}}, "T": {"type": "DT_FLOAT"}, "data_format": {"s": "TkhXQw=="}, "strides": {"list": {"i": ["1", "1", "1", "1"]}}, "explicit_paddings": {"list": {}}, "use_cudnn_on_gpu": {"b": true}, "num_args": {"i": "1"}, "epsilon": {"f": 0.0}, "padding": {"s": "U0FNRQ=="}, "fused_ops": {"list": {"s": ["Qmlhc0FkZA=="]}}}}, {"name": "StatefulPartitionedCall/sequential/efficientnet-b2/block2b_se_expand/Sigmoid", "op": "Sigmoid", "input": ["StatefulPartitionedCall/sequential/efficientnet-b2/block2b_se_expand/BiasAdd"], "attr": {"T": {"type": "DT_FLOAT"}}}, {"name": "StatefulPartitionedCall/sequential/efficientnet-b2/block2b_se_excite/mul", "op": "Mul", "input": ["StatefulPartitionedCall/sequential/efficientnet-b2/block2b_activation/mul", "StatefulPartitionedCall/sequential/efficientnet-b2/block2b_se_expand/Sigmoid"], "attr": {"T": {"type": "DT_FLOAT"}}}, {"name": "StatefulPartitionedCall/sequential/efficientnet-b2/block2b_project_bn/FusedBatchNormV3", "op": "_FusedConv2D", "input": ["StatefulPartitionedCall/sequential/efficientnet-b2/block2b_se_excite/mul", "StatefulPartitionedCall/sequential/efficientnet-b2/block2b_project_conv/Conv2D_weights", "StatefulPartitionedCall/sequential/efficientnet-b2/block2b_project_conv/Conv2D_bn_offset"], "device": "/device:CPU:0", "attr": {"num_args": {"i": "1"}, "epsilon": {"f": 0.0}, "padding": {"s": "U0FNRQ=="}, "fused_ops": {"list": {"s": ["Qmlhc0FkZA=="]}}, "dilations": {"list": {"i": ["1", "1", "1", "1"]}}, "T": {"type": "DT_FLOAT"}, "strides": {"list": {"i": ["1", "1", "1", "1"]}}, "data_format": {"s": "TkhXQw=="}, "use_cudnn_on_gpu": {"b": true}, "explicit_paddings": {"list": {}}}}, {"name": "StatefulPartitionedCall/sequential/efficientnet-b2/block2b_add/add", "op": "AddV2", "input": ["StatefulPartitionedCall/sequential/efficientnet-b2/block2a_project_bn/FusedBatchNormV3", "StatefulPartitionedCall/sequential/efficientnet-b2/block2b_project_bn/FusedBatchNormV3"], "attr": {"T": {"type": "DT_FLOAT"}}}, {"name": "StatefulPartitionedCall/sequential/efficientnet-b2/block2c_expand_bn/FusedBatchNormV3", "op": "_FusedConv2D", "input": ["StatefulPartitionedCall/sequential/efficientnet-b2/block2b_add/add", "StatefulPartitionedCall/sequential/efficientnet-b2/block2c_expand_conv/Conv2D_weights", "StatefulPartitionedCall/sequential/efficientnet-b2/block2c_expand_conv/Conv2D_bn_offset"], "device": "/device:CPU:0", "attr": {"strides": {"list": {"i": ["1", "1", "1", "1"]}}, "data_format": {"s": "TkhXQw=="}, "explicit_paddings": {"list": {}}, "use_cudnn_on_gpu": {"b": true}, "num_args": {"i": "1"}, "epsilon": {"f": 0.0}, "padding": {"s": "U0FNRQ=="}, "fused_ops": {"list": {"s": ["Qmlhc0FkZA=="]}}, "dilations": {"list": {"i": ["1", "1", "1", "1"]}}, "T": {"type": "DT_FLOAT"}}}, {"name": "StatefulPartitionedCall/sequential/efficientnet-b2/block2c_expand_activation/Sigmoid", "op": "Sigmoid", "input": ["StatefulPartitionedCall/sequential/efficientnet-b2/block2c_expand_bn/FusedBatchNormV3"], "attr": {"T": {"type": "DT_FLOAT"}}}, {"name": "StatefulPartitionedCall/sequential/efficientnet-b2/block2c_expand_activation/mul", "op": "Mul", "input": ["StatefulPartitionedCall/sequential/efficientnet-b2/block2c_expand_activation/Sigmoid", "StatefulPartitionedCall/sequential/efficientnet-b2/block2c_expand_bn/FusedBatchNormV3"], "attr": {"T": {"type": "DT_FLOAT"}}}, {"name": "StatefulPartitionedCall/sequential/efficientnet-b2/block2c_dwconv/depthwise", "op": "FusedDepthwiseConv2dNative", "input": ["StatefulPartitionedCall/sequential/efficientnet-b2/block2c_expand_activation/mul", "StatefulPartitionedCall/sequential/efficientnet-b2/block2c_dwconv/depthwise_weights", "StatefulPartitionedCall/sequential/efficientnet-b2/block2c_dwconv/depthwise_bn_offset"], "attr": {"fused_ops": {"list": {"s": ["Qmlhc0FkZA=="]}}, "dilations": {"list": {"i": ["1", "1", "1", "1"]}}, "T": {"type": "DT_FLOAT"}, "strides": {"list": {"i": ["1", "1", "1", "1"]}}, "data_format": {"s": "TkhXQw=="}, "num_args": {"i": "1"}, "padding": {"s": "U0FNRQ=="}}}, {"name": "StatefulPartitionedCall/sequential/efficientnet-b2/block2c_activation/Sigmoid", "op": "Sigmoid", "input": ["StatefulPartitionedCall/sequential/efficientnet-b2/block2c_dwconv/depthwise"], "attr": {"T": {"type": "DT_FLOAT"}}}, {"name": "StatefulPartitionedCall/sequential/efficientnet-b2/block2c_activation/mul", "op": "Mul", "input": ["StatefulPartitionedCall/sequential/efficientnet-b2/block2c_activation/Sigmoid", "StatefulPartitionedCall/sequential/efficientnet-b2/block2c_dwconv/depthwise"], "attr": {"T": {"type": "DT_FLOAT"}}}, {"name": "StatefulPartitionedCall/sequential/efficientnet-b2/block2c_se_squeeze/Mean", "op": "Mean", "input": ["StatefulPartitionedCall/sequential/efficientnet-b2/block2c_activation/mul", "StatefulPartitionedCall/sequential/efficientnet-b2/block7b_se_squeeze/Mean/reduction_indices"], "attr": {"keep_dims": {"b": false}, "Tidx": {"type": "DT_INT32"}, "T": {"type": "DT_FLOAT"}}}, {"name": "StatefulPartitionedCall/sequential/efficientnet-b2/block2c_se_reshape/Shape", "op": "Shape", "input": ["StatefulPartitionedCall/sequential/efficientnet-b2/block2c_se_squeeze/Mean"], "attr": {"T": {"type": "DT_FLOAT"}, "out_type": {"type": "DT_INT32"}}}, {"name": "StatefulPartitionedCall/sequential/efficientnet-b2/block2c_se_reshape/strided_slice", "op": "StridedSlice", "input": ["StatefulPartitionedCall/sequential/efficientnet-b2/block2c_se_reshape/Shape", "StatefulPartitionedCall/sequential/efficientnet-b2/block7b_se_reshape/strided_slice/stack", "StatefulPartitionedCall/sequential/efficientnet-b2/block7b_se_reshape/strided_slice/stack_1", "StatefulPartitionedCall/sequential/efficientnet-b2/block7b_se_reshape/strided_slice/stack_1"], "attr": {"end_mask": {"i": "0"}, "Index": {"type": "DT_INT32"}, "T": {"type": "DT_INT32"}, "shrink_axis_mask": {"i": "1"}, "begin_mask": {"i": "0"}, "ellipsis_mask": {"i": "0"}, "new_axis_mask": {"i": "0"}}}, {"name": "StatefulPartitionedCall/sequential/efficientnet-b2/block2c_se_reshape/Reshape/shape", "op": "Pack", "input": ["StatefulPartitionedCall/sequential/efficientnet-b2/block2c_se_reshape/strided_slice", "StatefulPartitionedCall/sequential/efficientnet-b2/block7b_se_reshape/Reshape/shape/1", "StatefulPartitionedCall/sequential/efficientnet-b2/block7b_se_reshape/Reshape/shape/1", "StatefulPartitionedCall/sequential/efficientnet-b2/block2c_se_reshape/Reshape/shape/3"], "attr": {"T": {"type": "DT_INT32"}, "axis": {"i": "0"}, "N": {"i": "4"}}}, {"name": "StatefulPartitionedCall/sequential/efficientnet-b2/block2c_se_reshape/Reshape", "op": "Reshape", "input": ["StatefulPartitionedCall/sequential/efficientnet-b2/block2c_se_squeeze/Mean", "StatefulPartitionedCall/sequential/efficientnet-b2/block2c_se_reshape/Reshape/shape"], "attr": {"T": {"type": "DT_FLOAT"}, "Tshape": {"type": "DT_INT32"}}}, {"name": "StatefulPartitionedCall/sequential/efficientnet-b2/block2c_se_reduce/BiasAdd", "op": "_FusedConv2D", "input": ["StatefulPartitionedCall/sequential/efficientnet-b2/block2c_se_reshape/Reshape", "Func/StatefulPartitionedCall/input/_83", "Func/StatefulPartitionedCall/input/_84"], "device": "/device:CPU:0", "attr": {"dilations": {"list": {"i": ["1", "1", "1", "1"]}}, "T": {"type": "DT_FLOAT"}, "data_format": {"s": "TkhXQw=="}, "strides": {"list": {"i": ["1", "1", "1", "1"]}}, "explicit_paddings": {"list": {}}, "use_cudnn_on_gpu": {"b": true}, "num_args": {"i": "1"}, "epsilon": {"f": 0.0}, "padding": {"s": "U0FNRQ=="}, "fused_ops": {"list": {"s": ["Qmlhc0FkZA=="]}}}}, {"name": "StatefulPartitionedCall/sequential/efficientnet-b2/block2c_se_reduce/Sigmoid", "op": "Sigmoid", "input": ["StatefulPartitionedCall/sequential/efficientnet-b2/block2c_se_reduce/BiasAdd"], "attr": {"T": {"type": "DT_FLOAT"}}}, {"name": "StatefulPartitionedCall/sequential/efficientnet-b2/block2c_se_reduce/mul", "op": "Mul", "input": ["StatefulPartitionedCall/sequential/efficientnet-b2/block2c_se_reduce/BiasAdd", "StatefulPartitionedCall/sequential/efficientnet-b2/block2c_se_reduce/Sigmoid"], "attr": {"T": {"type": "DT_FLOAT"}}}, {"name": "StatefulPartitionedCall/sequential/efficientnet-b2/block2c_se_expand/BiasAdd", "op": "_FusedConv2D", "input": ["StatefulPartitionedCall/sequential/efficientnet-b2/block2c_se_reduce/mul", "Func/StatefulPartitionedCall/input/_85", "Func/StatefulPartitionedCall/input/_86"], "device": "/device:CPU:0", "attr": {"dilations": {"list": {"i": ["1", "1", "1", "1"]}}, "T": {"type": "DT_FLOAT"}, "strides": {"list": {"i": ["1", "1", "1", "1"]}}, "data_format": {"s": "TkhXQw=="}, "use_cudnn_on_gpu": {"b": true}, "explicit_paddings": {"list": {}}, "num_args": {"i": "1"}, "epsilon": {"f": 0.0}, "padding": {"s": "U0FNRQ=="}, "fused_ops": {"list": {"s": ["Qmlhc0FkZA=="]}}}}, {"name": "StatefulPartitionedCall/sequential/efficientnet-b2/block2c_se_expand/Sigmoid", "op": "Sigmoid", "input": ["StatefulPartitionedCall/sequential/efficientnet-b2/block2c_se_expand/BiasAdd"], "attr": {"T": {"type": "DT_FLOAT"}}}, {"name": "StatefulPartitionedCall/sequential/efficientnet-b2/block2c_se_excite/mul", "op": "Mul", "input": ["StatefulPartitionedCall/sequential/efficientnet-b2/block2c_activation/mul", "StatefulPartitionedCall/sequential/efficientnet-b2/block2c_se_expand/Sigmoid"], "attr": {"T": {"type": "DT_FLOAT"}}}, {"name": "StatefulPartitionedCall/sequential/efficientnet-b2/block2c_project_bn/FusedBatchNormV3", "op": "_FusedConv2D", "input": ["StatefulPartitionedCall/sequential/efficientnet-b2/block2c_se_excite/mul", "StatefulPartitionedCall/sequential/efficientnet-b2/block2c_project_conv/Conv2D_weights", "StatefulPartitionedCall/sequential/efficientnet-b2/block2c_project_conv/Conv2D_bn_offset"], "device": "/device:CPU:0", "attr": {"T": {"type": "DT_FLOAT"}, "strides": {"list": {"i": ["1", "1", "1", "1"]}}, "data_format": {"s": "TkhXQw=="}, "explicit_paddings": {"list": {}}, "use_cudnn_on_gpu": {"b": true}, "num_args": {"i": "1"}, "epsilon": {"f": 0.0}, "padding": {"s": "U0FNRQ=="}, "fused_ops": {"list": {"s": ["Qmlhc0FkZA=="]}}, "dilations": {"list": {"i": ["1", "1", "1", "1"]}}}}, {"name": "StatefulPartitionedCall/sequential/efficientnet-b2/block2c_add/add", "op": "AddV2", "input": ["StatefulPartitionedCall/sequential/efficientnet-b2/block2b_add/add", "StatefulPartitionedCall/sequential/efficientnet-b2/block2c_project_bn/FusedBatchNormV3"], "attr": {"T": {"type": "DT_FLOAT"}}}, {"name": "StatefulPartitionedCall/sequential/efficientnet-b2/block3a_expand_bn/FusedBatchNormV3", "op": "_FusedConv2D", "input": ["StatefulPartitionedCall/sequential/efficientnet-b2/block2c_add/add", "StatefulPartitionedCall/sequential/efficientnet-b2/block3a_expand_conv/Conv2D_weights", "StatefulPartitionedCall/sequential/efficientnet-b2/block3a_expand_conv/Conv2D_bn_offset"], "device": "/device:CPU:0", "attr": {"dilations": {"list": {"i": ["1", "1", "1", "1"]}}, "T": {"type": "DT_FLOAT"}, "strides": {"list": {"i": ["1", "1", "1", "1"]}}, "data_format": {"s": "TkhXQw=="}, "use_cudnn_on_gpu": {"b": true}, "explicit_paddings": {"list": {}}, "num_args": {"i": "1"}, "epsilon": {"f": 0.0}, "padding": {"s": "U0FNRQ=="}, "fused_ops": {"list": {"s": ["Qmlhc0FkZA=="]}}}}, {"name": "StatefulPartitionedCall/sequential/efficientnet-b2/block3a_expand_activation/Sigmoid", "op": "Sigmoid", "input": ["StatefulPartitionedCall/sequential/efficientnet-b2/block3a_expand_bn/FusedBatchNormV3"], "attr": {"T": {"type": "DT_FLOAT"}}}, {"name": "StatefulPartitionedCall/sequential/efficientnet-b2/block3a_expand_activation/mul", "op": "Mul", "input": ["StatefulPartitionedCall/sequential/efficientnet-b2/block3a_expand_activation/Sigmoid", "StatefulPartitionedCall/sequential/efficientnet-b2/block3a_expand_bn/FusedBatchNormV3"], "attr": {"T": {"type": "DT_FLOAT"}}}, {"name": "StatefulPartitionedCall/sequential/efficientnet-b2/block3a_dwconv/depthwise", "op": "FusedDepthwiseConv2dNative", "input": ["StatefulPartitionedCall/sequential/efficientnet-b2/block3a_expand_activation/mul", "StatefulPartitionedCall/sequential/efficientnet-b2/block3a_dwconv/depthwise_weights", "StatefulPartitionedCall/sequential/efficientnet-b2/block3a_dwconv/depthwise_bn_offset"], "attr": {"padding": {"s": "U0FNRQ=="}, "fused_ops": {"list": {"s": ["Qmlhc0FkZA=="]}}, "dilations": {"list": {"i": ["1", "1", "1", "1"]}}, "T": {"type": "DT_FLOAT"}, "data_format": {"s": "TkhXQw=="}, "strides": {"list": {"i": ["1", "2", "2", "1"]}}, "num_args": {"i": "1"}}}, {"name": "StatefulPartitionedCall/sequential/efficientnet-b2/block3a_activation/Sigmoid", "op": "Sigmoid", "input": ["StatefulPartitionedCall/sequential/efficientnet-b2/block3a_dwconv/depthwise"], "attr": {"T": {"type": "DT_FLOAT"}}}, {"name": "StatefulPartitionedCall/sequential/efficientnet-b2/block3a_activation/mul", "op": "Mul", "input": ["StatefulPartitionedCall/sequential/efficientnet-b2/block3a_activation/Sigmoid", "StatefulPartitionedCall/sequential/efficientnet-b2/block3a_dwconv/depthwise"], "attr": {"T": {"type": "DT_FLOAT"}}}, {"name": "StatefulPartitionedCall/sequential/efficientnet-b2/block3a_se_squeeze/Mean", "op": "Mean", "input": ["StatefulPartitionedCall/sequential/efficientnet-b2/block3a_activation/mul", "StatefulPartitionedCall/sequential/efficientnet-b2/block7b_se_squeeze/Mean/reduction_indices"], "attr": {"keep_dims": {"b": false}, "Tidx": {"type": "DT_INT32"}, "T": {"type": "DT_FLOAT"}}}, {"name": "StatefulPartitionedCall/sequential/efficientnet-b2/block3a_se_reshape/Shape", "op": "Shape", "input": ["StatefulPartitionedCall/sequential/efficientnet-b2/block3a_se_squeeze/Mean"], "attr": {"T": {"type": "DT_FLOAT"}, "out_type": {"type": "DT_INT32"}}}, {"name": "StatefulPartitionedCall/sequential/efficientnet-b2/block3a_se_reshape/strided_slice", "op": "StridedSlice", "input": ["StatefulPartitionedCall/sequential/efficientnet-b2/block3a_se_reshape/Shape", "StatefulPartitionedCall/sequential/efficientnet-b2/block7b_se_reshape/strided_slice/stack", "StatefulPartitionedCall/sequential/efficientnet-b2/block7b_se_reshape/strided_slice/stack_1", "StatefulPartitionedCall/sequential/efficientnet-b2/block7b_se_reshape/strided_slice/stack_1"], "attr": {"Index": {"type": "DT_INT32"}, "T": {"type": "DT_INT32"}, "shrink_axis_mask": {"i": "1"}, "ellipsis_mask": {"i": "0"}, "begin_mask": {"i": "0"}, "new_axis_mask": {"i": "0"}, "end_mask": {"i": "0"}}}, {"name": "StatefulPartitionedCall/sequential/efficientnet-b2/block3a_se_reshape/Reshape/shape", "op": "Pack", "input": ["StatefulPartitionedCall/sequential/efficientnet-b2/block3a_se_reshape/strided_slice", "StatefulPartitionedCall/sequential/efficientnet-b2/block7b_se_reshape/Reshape/shape/1", "StatefulPartitionedCall/sequential/efficientnet-b2/block7b_se_reshape/Reshape/shape/1", "StatefulPartitionedCall/sequential/efficientnet-b2/block2c_se_reshape/Reshape/shape/3"], "attr": {"T": {"type": "DT_INT32"}, "axis": {"i": "0"}, "N": {"i": "4"}}}, {"name": "StatefulPartitionedCall/sequential/efficientnet-b2/block3a_se_reshape/Reshape", "op": "Reshape", "input": ["StatefulPartitionedCall/sequential/efficientnet-b2/block3a_se_squeeze/Mean", "StatefulPartitionedCall/sequential/efficientnet-b2/block3a_se_reshape/Reshape/shape"], "attr": {"T": {"type": "DT_FLOAT"}, "Tshape": {"type": "DT_INT32"}}}, {"name": "StatefulPartitionedCall/sequential/efficientnet-b2/block3a_se_reduce/BiasAdd", "op": "_FusedConv2D", "input": ["StatefulPartitionedCall/sequential/efficientnet-b2/block3a_se_reshape/Reshape", "Func/StatefulPartitionedCall/input/_102", "Func/StatefulPartitionedCall/input/_103"], "device": "/device:CPU:0", "attr": {"fused_ops": {"list": {"s": ["Qmlhc0FkZA=="]}}, "dilations": {"list": {"i": ["1", "1", "1", "1"]}}, "T": {"type": "DT_FLOAT"}, "data_format": {"s": "TkhXQw=="}, "strides": {"list": {"i": ["1", "1", "1", "1"]}}, "explicit_paddings": {"list": {}}, "use_cudnn_on_gpu": {"b": true}, "num_args": {"i": "1"}, "epsilon": {"f": 0.0}, "padding": {"s": "U0FNRQ=="}}}, {"name": "StatefulPartitionedCall/sequential/efficientnet-b2/block3a_se_reduce/Sigmoid", "op": "Sigmoid", "input": ["StatefulPartitionedCall/sequential/efficientnet-b2/block3a_se_reduce/BiasAdd"], "attr": {"T": {"type": "DT_FLOAT"}}}, {"name": "StatefulPartitionedCall/sequential/efficientnet-b2/block3a_se_reduce/mul", "op": "Mul", "input": ["StatefulPartitionedCall/sequential/efficientnet-b2/block3a_se_reduce/BiasAdd", "StatefulPartitionedCall/sequential/efficientnet-b2/block3a_se_reduce/Sigmoid"], "attr": {"T": {"type": "DT_FLOAT"}}}, {"name": "StatefulPartitionedCall/sequential/efficientnet-b2/block3a_se_expand/BiasAdd", "op": "_FusedConv2D", "input": ["StatefulPartitionedCall/sequential/efficientnet-b2/block3a_se_reduce/mul", "Func/StatefulPartitionedCall/input/_104", "Func/StatefulPartitionedCall/input/_105"], "device": "/device:CPU:0", "attr": {"dilations": {"list": {"i": ["1", "1", "1", "1"]}}, "T": {"type": "DT_FLOAT"}, "data_format": {"s": "TkhXQw=="}, "strides": {"list": {"i": ["1", "1", "1", "1"]}}, "explicit_paddings": {"list": {}}, "use_cudnn_on_gpu": {"b": true}, "num_args": {"i": "1"}, "epsilon": {"f": 0.0}, "padding": {"s": "U0FNRQ=="}, "fused_ops": {"list": {"s": ["Qmlhc0FkZA=="]}}}}, {"name": "StatefulPartitionedCall/sequential/efficientnet-b2/block3a_se_expand/Sigmoid", "op": "Sigmoid", "input": ["StatefulPartitionedCall/sequential/efficientnet-b2/block3a_se_expand/BiasAdd"], "attr": {"T": {"type": "DT_FLOAT"}}}, {"name": "StatefulPartitionedCall/sequential/efficientnet-b2/block3a_se_excite/mul", "op": "Mul", "input": ["StatefulPartitionedCall/sequential/efficientnet-b2/block3a_activation/mul", "StatefulPartitionedCall/sequential/efficientnet-b2/block3a_se_expand/Sigmoid"], "attr": {"T": {"type": "DT_FLOAT"}}}, {"name": "StatefulPartitionedCall/sequential/efficientnet-b2/block3a_project_bn/FusedBatchNormV3", "op": "_FusedConv2D", "input": ["StatefulPartitionedCall/sequential/efficientnet-b2/block3a_se_excite/mul", "StatefulPartitionedCall/sequential/efficientnet-b2/block3a_project_conv/Conv2D_weights", "StatefulPartitionedCall/sequential/efficientnet-b2/block3a_project_conv/Conv2D_bn_offset"], "device": "/device:CPU:0", "attr": {"dilations": {"list": {"i": ["1", "1", "1", "1"]}}, "T": {"type": "DT_FLOAT"}, "data_format": {"s": "TkhXQw=="}, "strides": {"list": {"i": ["1", "1", "1", "1"]}}, "explicit_paddings": {"list": {}}, "use_cudnn_on_gpu": {"b": true}, "num_args": {"i": "1"}, "epsilon": {"f": 0.0}, "padding": {"s": "U0FNRQ=="}, "fused_ops": {"list": {"s": ["Qmlhc0FkZA=="]}}}}, {"name": "StatefulPartitionedCall/sequential/efficientnet-b2/block3b_expand_bn/FusedBatchNormV3", "op": "_FusedConv2D", "input": ["StatefulPartitionedCall/sequential/efficientnet-b2/block3a_project_bn/FusedBatchNormV3", "StatefulPartitionedCall/sequential/efficientnet-b2/block3b_expand_conv/Conv2D_weights", "StatefulPartitionedCall/sequential/efficientnet-b2/block3b_expand_conv/Conv2D_bn_offset"], "device": "/device:CPU:0", "attr": {"strides": {"list": {"i": ["1", "1", "1", "1"]}}, "data_format": {"s": "TkhXQw=="}, "explicit_paddings": {"list": {}}, "use_cudnn_on_gpu": {"b": true}, "num_args": {"i": "1"}, "epsilon": {"f": 0.0}, "padding": {"s": "U0FNRQ=="}, "fused_ops": {"list": {"s": ["Qmlhc0FkZA=="]}}, "dilations": {"list": {"i": ["1", "1", "1", "1"]}}, "T": {"type": "DT_FLOAT"}}}, {"name": "StatefulPartitionedCall/sequential/efficientnet-b2/block3b_expand_activation/Sigmoid", "op": "Sigmoid", "input": ["StatefulPartitionedCall/sequential/efficientnet-b2/block3b_expand_bn/FusedBatchNormV3"], "attr": {"T": {"type": "DT_FLOAT"}}}, {"name": "StatefulPartitionedCall/sequential/efficientnet-b2/block3b_expand_activation/mul", "op": "Mul", "input": ["StatefulPartitionedCall/sequential/efficientnet-b2/block3b_expand_activation/Sigmoid", "StatefulPartitionedCall/sequential/efficientnet-b2/block3b_expand_bn/FusedBatchNormV3"], "attr": {"T": {"type": "DT_FLOAT"}}}, {"name": "StatefulPartitionedCall/sequential/efficientnet-b2/block3b_dwconv/depthwise", "op": "FusedDepthwiseConv2dNative", "input": ["StatefulPartitionedCall/sequential/efficientnet-b2/block3b_expand_activation/mul", "StatefulPartitionedCall/sequential/efficientnet-b2/block3b_dwconv/depthwise_weights", "StatefulPartitionedCall/sequential/efficientnet-b2/block3b_dwconv/depthwise_bn_offset"], "attr": {"dilations": {"list": {"i": ["1", "1", "1", "1"]}}, "T": {"type": "DT_FLOAT"}, "data_format": {"s": "TkhXQw=="}, "strides": {"list": {"i": ["1", "1", "1", "1"]}}, "num_args": {"i": "1"}, "padding": {"s": "U0FNRQ=="}, "fused_ops": {"list": {"s": ["Qmlhc0FkZA=="]}}}}, {"name": "StatefulPartitionedCall/sequential/efficientnet-b2/block3b_activation/Sigmoid", "op": "Sigmoid", "input": ["StatefulPartitionedCall/sequential/efficientnet-b2/block3b_dwconv/depthwise"], "attr": {"T": {"type": "DT_FLOAT"}}}, {"name": "StatefulPartitionedCall/sequential/efficientnet-b2/block3b_activation/mul", "op": "Mul", "input": ["StatefulPartitionedCall/sequential/efficientnet-b2/block3b_activation/Sigmoid", "StatefulPartitionedCall/sequential/efficientnet-b2/block3b_dwconv/depthwise"], "attr": {"T": {"type": "DT_FLOAT"}}}, {"name": "StatefulPartitionedCall/sequential/efficientnet-b2/block3b_se_squeeze/Mean", "op": "Mean", "input": ["StatefulPartitionedCall/sequential/efficientnet-b2/block3b_activation/mul", "StatefulPartitionedCall/sequential/efficientnet-b2/block7b_se_squeeze/Mean/reduction_indices"], "attr": {"keep_dims": {"b": false}, "Tidx": {"type": "DT_INT32"}, "T": {"type": "DT_FLOAT"}}}, {"name": "StatefulPartitionedCall/sequential/efficientnet-b2/block3b_se_reshape/Shape", "op": "Shape", "input": ["StatefulPartitionedCall/sequential/efficientnet-b2/block3b_se_squeeze/Mean"], "attr": {"T": {"type": "DT_FLOAT"}, "out_type": {"type": "DT_INT32"}}}, {"name": "StatefulPartitionedCall/sequential/efficientnet-b2/block3b_se_reshape/strided_slice", "op": "StridedSlice", "input": ["StatefulPartitionedCall/sequential/efficientnet-b2/block3b_se_reshape/Shape", "StatefulPartitionedCall/sequential/efficientnet-b2/block7b_se_reshape/strided_slice/stack", "StatefulPartitionedCall/sequential/efficientnet-b2/block7b_se_reshape/strided_slice/stack_1", "StatefulPartitionedCall/sequential/efficientnet-b2/block7b_se_reshape/strided_slice/stack_1"], "attr": {"ellipsis_mask": {"i": "0"}, "begin_mask": {"i": "0"}, "new_axis_mask": {"i": "0"}, "end_mask": {"i": "0"}, "T": {"type": "DT_INT32"}, "Index": {"type": "DT_INT32"}, "shrink_axis_mask": {"i": "1"}}}, {"name": "StatefulPartitionedCall/sequential/efficientnet-b2/block3b_se_reshape/Reshape/shape", "op": "Pack", "input": ["StatefulPartitionedCall/sequential/efficientnet-b2/block3b_se_reshape/strided_slice", "StatefulPartitionedCall/sequential/efficientnet-b2/block7b_se_reshape/Reshape/shape/1", "StatefulPartitionedCall/sequential/efficientnet-b2/block7b_se_reshape/Reshape/shape/1", "StatefulPartitionedCall/sequential/efficientnet-b2/block3c_se_reshape/Reshape/shape/3"], "attr": {"N": {"i": "4"}, "T": {"type": "DT_INT32"}, "axis": {"i": "0"}}}, {"name": "StatefulPartitionedCall/sequential/efficientnet-b2/block3b_se_reshape/Reshape", "op": "Reshape", "input": ["StatefulPartitionedCall/sequential/efficientnet-b2/block3b_se_squeeze/Mean", "StatefulPartitionedCall/sequential/efficientnet-b2/block3b_se_reshape/Reshape/shape"], "attr": {"T": {"type": "DT_FLOAT"}, "Tshape": {"type": "DT_INT32"}}}, {"name": "StatefulPartitionedCall/sequential/efficientnet-b2/block3b_se_reduce/BiasAdd", "op": "_FusedConv2D", "input": ["StatefulPartitionedCall/sequential/efficientnet-b2/block3b_se_reshape/Reshape", "Func/StatefulPartitionedCall/input/_121", "Func/StatefulPartitionedCall/input/_122"], "device": "/device:CPU:0", "attr": {"dilations": {"list": {"i": ["1", "1", "1", "1"]}}, "T": {"type": "DT_FLOAT"}, "strides": {"list": {"i": ["1", "1", "1", "1"]}}, "data_format": {"s": "TkhXQw=="}, "use_cudnn_on_gpu": {"b": true}, "explicit_paddings": {"list": {}}, "num_args": {"i": "1"}, "epsilon": {"f": 0.0}, "padding": {"s": "U0FNRQ=="}, "fused_ops": {"list": {"s": ["Qmlhc0FkZA=="]}}}}, {"name": "StatefulPartitionedCall/sequential/efficientnet-b2/block3b_se_reduce/Sigmoid", "op": "Sigmoid", "input": ["StatefulPartitionedCall/sequential/efficientnet-b2/block3b_se_reduce/BiasAdd"], "attr": {"T": {"type": "DT_FLOAT"}}}, {"name": "StatefulPartitionedCall/sequential/efficientnet-b2/block3b_se_reduce/mul", "op": "Mul", "input": ["StatefulPartitionedCall/sequential/efficientnet-b2/block3b_se_reduce/BiasAdd", "StatefulPartitionedCall/sequential/efficientnet-b2/block3b_se_reduce/Sigmoid"], "attr": {"T": {"type": "DT_FLOAT"}}}, {"name": "StatefulPartitionedCall/sequential/efficientnet-b2/block3b_se_expand/BiasAdd", "op": "_FusedConv2D", "input": ["StatefulPartitionedCall/sequential/efficientnet-b2/block3b_se_reduce/mul", "Func/StatefulPartitionedCall/input/_123", "Func/StatefulPartitionedCall/input/_124"], "device": "/device:CPU:0", "attr": {"data_format": {"s": "TkhXQw=="}, "strides": {"list": {"i": ["1", "1", "1", "1"]}}, "explicit_paddings": {"list": {}}, "use_cudnn_on_gpu": {"b": true}, "num_args": {"i": "1"}, "epsilon": {"f": 0.0}, "padding": {"s": "U0FNRQ=="}, "fused_ops": {"list": {"s": ["Qmlhc0FkZA=="]}}, "dilations": {"list": {"i": ["1", "1", "1", "1"]}}, "T": {"type": "DT_FLOAT"}}}, {"name": "StatefulPartitionedCall/sequential/efficientnet-b2/block3b_se_expand/Sigmoid", "op": "Sigmoid", "input": ["StatefulPartitionedCall/sequential/efficientnet-b2/block3b_se_expand/BiasAdd"], "attr": {"T": {"type": "DT_FLOAT"}}}, {"name": "StatefulPartitionedCall/sequential/efficientnet-b2/block3b_se_excite/mul", "op": "Mul", "input": ["StatefulPartitionedCall/sequential/efficientnet-b2/block3b_activation/mul", "StatefulPartitionedCall/sequential/efficientnet-b2/block3b_se_expand/Sigmoid"], "attr": {"T": {"type": "DT_FLOAT"}}}, {"name": "StatefulPartitionedCall/sequential/efficientnet-b2/block3b_project_bn/FusedBatchNormV3", "op": "_FusedConv2D", "input": ["StatefulPartitionedCall/sequential/efficientnet-b2/block3b_se_excite/mul", "StatefulPartitionedCall/sequential/efficientnet-b2/block3b_project_conv/Conv2D_weights", "StatefulPartitionedCall/sequential/efficientnet-b2/block3b_project_conv/Conv2D_bn_offset"], "device": "/device:CPU:0", "attr": {"dilations": {"list": {"i": ["1", "1", "1", "1"]}}, "T": {"type": "DT_FLOAT"}, "strides": {"list": {"i": ["1", "1", "1", "1"]}}, "data_format": {"s": "TkhXQw=="}, "use_cudnn_on_gpu": {"b": true}, "explicit_paddings": {"list": {}}, "num_args": {"i": "1"}, "epsilon": {"f": 0.0}, "padding": {"s": "U0FNRQ=="}, "fused_ops": {"list": {"s": ["Qmlhc0FkZA=="]}}}}, {"name": "StatefulPartitionedCall/sequential/efficientnet-b2/block3b_add/add", "op": "AddV2", "input": ["StatefulPartitionedCall/sequential/efficientnet-b2/block3a_project_bn/FusedBatchNormV3", "StatefulPartitionedCall/sequential/efficientnet-b2/block3b_project_bn/FusedBatchNormV3"], "attr": {"T": {"type": "DT_FLOAT"}}}, {"name": "StatefulPartitionedCall/sequential/efficientnet-b2/block3c_expand_bn/FusedBatchNormV3", "op": "_FusedConv2D", "input": ["StatefulPartitionedCall/sequential/efficientnet-b2/block3b_add/add", "StatefulPartitionedCall/sequential/efficientnet-b2/block3c_expand_conv/Conv2D_weights", "StatefulPartitionedCall/sequential/efficientnet-b2/block3c_expand_conv/Conv2D_bn_offset"], "device": "/device:CPU:0", "attr": {"dilations": {"list": {"i": ["1", "1", "1", "1"]}}, "T": {"type": "DT_FLOAT"}, "strides": {"list": {"i": ["1", "1", "1", "1"]}}, "data_format": {"s": "TkhXQw=="}, "use_cudnn_on_gpu": {"b": true}, "explicit_paddings": {"list": {}}, "num_args": {"i": "1"}, "epsilon": {"f": 0.0}, "padding": {"s": "U0FNRQ=="}, "fused_ops": {"list": {"s": ["Qmlhc0FkZA=="]}}}}, {"name": "StatefulPartitionedCall/sequential/efficientnet-b2/block3c_expand_activation/Sigmoid", "op": "Sigmoid", "input": ["StatefulPartitionedCall/sequential/efficientnet-b2/block3c_expand_bn/FusedBatchNormV3"], "attr": {"T": {"type": "DT_FLOAT"}}}, {"name": "StatefulPartitionedCall/sequential/efficientnet-b2/block3c_expand_activation/mul", "op": "Mul", "input": ["StatefulPartitionedCall/sequential/efficientnet-b2/block3c_expand_activation/Sigmoid", "StatefulPartitionedCall/sequential/efficientnet-b2/block3c_expand_bn/FusedBatchNormV3"], "attr": {"T": {"type": "DT_FLOAT"}}}, {"name": "StatefulPartitionedCall/sequential/efficientnet-b2/block3c_dwconv/depthwise", "op": "FusedDepthwiseConv2dNative", "input": ["StatefulPartitionedCall/sequential/efficientnet-b2/block3c_expand_activation/mul", "StatefulPartitionedCall/sequential/efficientnet-b2/block3c_dwconv/depthwise_weights", "StatefulPartitionedCall/sequential/efficientnet-b2/block3c_dwconv/depthwise_bn_offset"], "attr": {"fused_ops": {"list": {"s": ["Qmlhc0FkZA=="]}}, "dilations": {"list": {"i": ["1", "1", "1", "1"]}}, "T": {"type": "DT_FLOAT"}, "strides": {"list": {"i": ["1", "1", "1", "1"]}}, "data_format": {"s": "TkhXQw=="}, "num_args": {"i": "1"}, "padding": {"s": "U0FNRQ=="}}}, {"name": "StatefulPartitionedCall/sequential/efficientnet-b2/block3c_activation/Sigmoid", "op": "Sigmoid", "input": ["StatefulPartitionedCall/sequential/efficientnet-b2/block3c_dwconv/depthwise"], "attr": {"T": {"type": "DT_FLOAT"}}}, {"name": "StatefulPartitionedCall/sequential/efficientnet-b2/block3c_activation/mul", "op": "Mul", "input": ["StatefulPartitionedCall/sequential/efficientnet-b2/block3c_activation/Sigmoid", "StatefulPartitionedCall/sequential/efficientnet-b2/block3c_dwconv/depthwise"], "attr": {"T": {"type": "DT_FLOAT"}}}, {"name": "StatefulPartitionedCall/sequential/efficientnet-b2/block3c_se_squeeze/Mean", "op": "Mean", "input": ["StatefulPartitionedCall/sequential/efficientnet-b2/block3c_activation/mul", "StatefulPartitionedCall/sequential/efficientnet-b2/block7b_se_squeeze/Mean/reduction_indices"], "attr": {"keep_dims": {"b": false}, "Tidx": {"type": "DT_INT32"}, "T": {"type": "DT_FLOAT"}}}, {"name": "StatefulPartitionedCall/sequential/efficientnet-b2/block3c_se_reshape/Shape", "op": "Shape", "input": ["StatefulPartitionedCall/sequential/efficientnet-b2/block3c_se_squeeze/Mean"], "attr": {"T": {"type": "DT_FLOAT"}, "out_type": {"type": "DT_INT32"}}}, {"name": "StatefulPartitionedCall/sequential/efficientnet-b2/block3c_se_reshape/strided_slice", "op": "StridedSlice", "input": ["StatefulPartitionedCall/sequential/efficientnet-b2/block3c_se_reshape/Shape", "StatefulPartitionedCall/sequential/efficientnet-b2/block7b_se_reshape/strided_slice/stack", "StatefulPartitionedCall/sequential/efficientnet-b2/block7b_se_reshape/strided_slice/stack_1", "StatefulPartitionedCall/sequential/efficientnet-b2/block7b_se_reshape/strided_slice/stack_1"], "attr": {"T": {"type": "DT_INT32"}, "Index": {"type": "DT_INT32"}, "shrink_axis_mask": {"i": "1"}, "ellipsis_mask": {"i": "0"}, "begin_mask": {"i": "0"}, "new_axis_mask": {"i": "0"}, "end_mask": {"i": "0"}}}, {"name": "StatefulPartitionedCall/sequential/efficientnet-b2/block3c_se_reshape/Reshape/shape", "op": "Pack", "input": ["StatefulPartitionedCall/sequential/efficientnet-b2/block3c_se_reshape/strided_slice", "StatefulPartitionedCall/sequential/efficientnet-b2/block7b_se_reshape/Reshape/shape/1", "StatefulPartitionedCall/sequential/efficientnet-b2/block7b_se_reshape/Reshape/shape/1", "StatefulPartitionedCall/sequential/efficientnet-b2/block3c_se_reshape/Reshape/shape/3"], "attr": {"T": {"type": "DT_INT32"}, "axis": {"i": "0"}, "N": {"i": "4"}}}, {"name": "StatefulPartitionedCall/sequential/efficientnet-b2/block3c_se_reshape/Reshape", "op": "Reshape", "input": ["StatefulPartitionedCall/sequential/efficientnet-b2/block3c_se_squeeze/Mean", "StatefulPartitionedCall/sequential/efficientnet-b2/block3c_se_reshape/Reshape/shape"], "attr": {"T": {"type": "DT_FLOAT"}, "Tshape": {"type": "DT_INT32"}}}, {"name": "StatefulPartitionedCall/sequential/efficientnet-b2/block3c_se_reduce/BiasAdd", "op": "_FusedConv2D", "input": ["StatefulPartitionedCall/sequential/efficientnet-b2/block3c_se_reshape/Reshape", "Func/StatefulPartitionedCall/input/_140", "Func/StatefulPartitionedCall/input/_141"], "device": "/device:CPU:0", "attr": {"num_args": {"i": "1"}, "epsilon": {"f": 0.0}, "padding": {"s": "U0FNRQ=="}, "fused_ops": {"list": {"s": ["Qmlhc0FkZA=="]}}, "dilations": {"list": {"i": ["1", "1", "1", "1"]}}, "T": {"type": "DT_FLOAT"}, "data_format": {"s": "TkhXQw=="}, "strides": {"list": {"i": ["1", "1", "1", "1"]}}, "explicit_paddings": {"list": {}}, "use_cudnn_on_gpu": {"b": true}}}, {"name": "StatefulPartitionedCall/sequential/efficientnet-b2/block3c_se_reduce/Sigmoid", "op": "Sigmoid", "input": ["StatefulPartitionedCall/sequential/efficientnet-b2/block3c_se_reduce/BiasAdd"], "attr": {"T": {"type": "DT_FLOAT"}}}, {"name": "StatefulPartitionedCall/sequential/efficientnet-b2/block3c_se_reduce/mul", "op": "Mul", "input": ["StatefulPartitionedCall/sequential/efficientnet-b2/block3c_se_reduce/BiasAdd", "StatefulPartitionedCall/sequential/efficientnet-b2/block3c_se_reduce/Sigmoid"], "attr": {"T": {"type": "DT_FLOAT"}}}, {"name": "StatefulPartitionedCall/sequential/efficientnet-b2/block3c_se_expand/BiasAdd", "op": "_FusedConv2D", "input": ["StatefulPartitionedCall/sequential/efficientnet-b2/block3c_se_reduce/mul", "Func/StatefulPartitionedCall/input/_142", "Func/StatefulPartitionedCall/input/_143"], "device": "/device:CPU:0", "attr": {"epsilon": {"f": 0.0}, "padding": {"s": "U0FNRQ=="}, "fused_ops": {"list": {"s": ["Qmlhc0FkZA=="]}}, "dilations": {"list": {"i": ["1", "1", "1", "1"]}}, "T": {"type": "DT_FLOAT"}, "data_format": {"s": "TkhXQw=="}, "strides": {"list": {"i": ["1", "1", "1", "1"]}}, "explicit_paddings": {"list": {}}, "use_cudnn_on_gpu": {"b": true}, "num_args": {"i": "1"}}}, {"name": "StatefulPartitionedCall/sequential/efficientnet-b2/block3c_se_expand/Sigmoid", "op": "Sigmoid", "input": ["StatefulPartitionedCall/sequential/efficientnet-b2/block3c_se_expand/BiasAdd"], "attr": {"T": {"type": "DT_FLOAT"}}}, {"name": "StatefulPartitionedCall/sequential/efficientnet-b2/block3c_se_excite/mul", "op": "Mul", "input": ["StatefulPartitionedCall/sequential/efficientnet-b2/block3c_activation/mul", "StatefulPartitionedCall/sequential/efficientnet-b2/block3c_se_expand/Sigmoid"], "attr": {"T": {"type": "DT_FLOAT"}}}, {"name": "StatefulPartitionedCall/sequential/efficientnet-b2/block3c_project_bn/FusedBatchNormV3", "op": "_FusedConv2D", "input": ["StatefulPartitionedCall/sequential/efficientnet-b2/block3c_se_excite/mul", "StatefulPartitionedCall/sequential/efficientnet-b2/block3c_project_conv/Conv2D_weights", "StatefulPartitionedCall/sequential/efficientnet-b2/block3c_project_conv/Conv2D_bn_offset"], "device": "/device:CPU:0", "attr": {"num_args": {"i": "1"}, "epsilon": {"f": 0.0}, "padding": {"s": "U0FNRQ=="}, "fused_ops": {"list": {"s": ["Qmlhc0FkZA=="]}}, "dilations": {"list": {"i": ["1", "1", "1", "1"]}}, "T": {"type": "DT_FLOAT"}, "data_format": {"s": "TkhXQw=="}, "strides": {"list": {"i": ["1", "1", "1", "1"]}}, "explicit_paddings": {"list": {}}, "use_cudnn_on_gpu": {"b": true}}}, {"name": "StatefulPartitionedCall/sequential/efficientnet-b2/block3c_add/add", "op": "AddV2", "input": ["StatefulPartitionedCall/sequential/efficientnet-b2/block3b_add/add", "StatefulPartitionedCall/sequential/efficientnet-b2/block3c_project_bn/FusedBatchNormV3"], "attr": {"T": {"type": "DT_FLOAT"}}}, {"name": "StatefulPartitionedCall/sequential/efficientnet-b2/block4a_expand_bn/FusedBatchNormV3", "op": "_FusedConv2D", "input": ["StatefulPartitionedCall/sequential/efficientnet-b2/block3c_add/add", "StatefulPartitionedCall/sequential/efficientnet-b2/block4a_expand_conv/Conv2D_weights", "StatefulPartitionedCall/sequential/efficientnet-b2/block4a_expand_conv/Conv2D_bn_offset"], "device": "/device:CPU:0", "attr": {"dilations": {"list": {"i": ["1", "1", "1", "1"]}}, "T": {"type": "DT_FLOAT"}, "strides": {"list": {"i": ["1", "1", "1", "1"]}}, "data_format": {"s": "TkhXQw=="}, "use_cudnn_on_gpu": {"b": true}, "explicit_paddings": {"list": {}}, "num_args": {"i": "1"}, "epsilon": {"f": 0.0}, "padding": {"s": "U0FNRQ=="}, "fused_ops": {"list": {"s": ["Qmlhc0FkZA=="]}}}}, {"name": "StatefulPartitionedCall/sequential/efficientnet-b2/block4a_expand_activation/Sigmoid", "op": "Sigmoid", "input": ["StatefulPartitionedCall/sequential/efficientnet-b2/block4a_expand_bn/FusedBatchNormV3"], "attr": {"T": {"type": "DT_FLOAT"}}}, {"name": "StatefulPartitionedCall/sequential/efficientnet-b2/block4a_expand_activation/mul", "op": "Mul", "input": ["StatefulPartitionedCall/sequential/efficientnet-b2/block4a_expand_activation/Sigmoid", "StatefulPartitionedCall/sequential/efficientnet-b2/block4a_expand_bn/FusedBatchNormV3"], "attr": {"T": {"type": "DT_FLOAT"}}}, {"name": "StatefulPartitionedCall/sequential/efficientnet-b2/block4a_dwconv/depthwise", "op": "FusedDepthwiseConv2dNative", "input": ["StatefulPartitionedCall/sequential/efficientnet-b2/block4a_expand_activation/mul", "StatefulPartitionedCall/sequential/efficientnet-b2/block4a_dwconv/depthwise_weights", "StatefulPartitionedCall/sequential/efficientnet-b2/block4a_dwconv/depthwise_bn_offset"], "attr": {"dilations": {"list": {"i": ["1", "1", "1", "1"]}}, "T": {"type": "DT_FLOAT"}, "data_format": {"s": "TkhXQw=="}, "strides": {"list": {"i": ["1", "2", "2", "1"]}}, "num_args": {"i": "1"}, "padding": {"s": "U0FNRQ=="}, "fused_ops": {"list": {"s": ["Qmlhc0FkZA=="]}}}}, {"name": "StatefulPartitionedCall/sequential/efficientnet-b2/block4a_activation/Sigmoid", "op": "Sigmoid", "input": ["StatefulPartitionedCall/sequential/efficientnet-b2/block4a_dwconv/depthwise"], "attr": {"T": {"type": "DT_FLOAT"}}}, {"name": "StatefulPartitionedCall/sequential/efficientnet-b2/block4a_activation/mul", "op": "Mul", "input": ["StatefulPartitionedCall/sequential/efficientnet-b2/block4a_activation/Sigmoid", "StatefulPartitionedCall/sequential/efficientnet-b2/block4a_dwconv/depthwise"], "attr": {"T": {"type": "DT_FLOAT"}}}, {"name": "StatefulPartitionedCall/sequential/efficientnet-b2/block4a_se_squeeze/Mean", "op": "Mean", "input": ["StatefulPartitionedCall/sequential/efficientnet-b2/block4a_activation/mul", "StatefulPartitionedCall/sequential/efficientnet-b2/block7b_se_squeeze/Mean/reduction_indices"], "attr": {"keep_dims": {"b": false}, "Tidx": {"type": "DT_INT32"}, "T": {"type": "DT_FLOAT"}}}, {"name": "StatefulPartitionedCall/sequential/efficientnet-b2/block4a_se_reshape/Shape", "op": "Shape", "input": ["StatefulPartitionedCall/sequential/efficientnet-b2/block4a_se_squeeze/Mean"], "attr": {"T": {"type": "DT_FLOAT"}, "out_type": {"type": "DT_INT32"}}}, {"name": "StatefulPartitionedCall/sequential/efficientnet-b2/block4a_se_reshape/strided_slice", "op": "StridedSlice", "input": ["StatefulPartitionedCall/sequential/efficientnet-b2/block4a_se_reshape/Shape", "StatefulPartitionedCall/sequential/efficientnet-b2/block7b_se_reshape/strided_slice/stack", "StatefulPartitionedCall/sequential/efficientnet-b2/block7b_se_reshape/strided_slice/stack_1", "StatefulPartitionedCall/sequential/efficientnet-b2/block7b_se_reshape/strided_slice/stack_1"], "attr": {"T": {"type": "DT_INT32"}, "Index": {"type": "DT_INT32"}, "shrink_axis_mask": {"i": "1"}, "begin_mask": {"i": "0"}, "ellipsis_mask": {"i": "0"}, "new_axis_mask": {"i": "0"}, "end_mask": {"i": "0"}}}, {"name": "StatefulPartitionedCall/sequential/efficientnet-b2/block4a_se_reshape/Reshape/shape", "op": "Pack", "input": ["StatefulPartitionedCall/sequential/efficientnet-b2/block4a_se_reshape/strided_slice", "StatefulPartitionedCall/sequential/efficientnet-b2/block7b_se_reshape/Reshape/shape/1", "StatefulPartitionedCall/sequential/efficientnet-b2/block7b_se_reshape/Reshape/shape/1", "StatefulPartitionedCall/sequential/efficientnet-b2/block3c_se_reshape/Reshape/shape/3"], "attr": {"T": {"type": "DT_INT32"}, "axis": {"i": "0"}, "N": {"i": "4"}}}, {"name": "StatefulPartitionedCall/sequential/efficientnet-b2/block4a_se_reshape/Reshape", "op": "Reshape", "input": ["StatefulPartitionedCall/sequential/efficientnet-b2/block4a_se_squeeze/Mean", "StatefulPartitionedCall/sequential/efficientnet-b2/block4a_se_reshape/Reshape/shape"], "attr": {"T": {"type": "DT_FLOAT"}, "Tshape": {"type": "DT_INT32"}}}, {"name": "StatefulPartitionedCall/sequential/efficientnet-b2/block4a_se_reduce/BiasAdd", "op": "_FusedConv2D", "input": ["StatefulPartitionedCall/sequential/efficientnet-b2/block4a_se_reshape/Reshape", "Func/StatefulPartitionedCall/input/_159", "Func/StatefulPartitionedCall/input/_160"], "device": "/device:CPU:0", "attr": {"num_args": {"i": "1"}, "epsilon": {"f": 0.0}, "padding": {"s": "U0FNRQ=="}, "fused_ops": {"list": {"s": ["Qmlhc0FkZA=="]}}, "dilations": {"list": {"i": ["1", "1", "1", "1"]}}, "T": {"type": "DT_FLOAT"}, "strides": {"list": {"i": ["1", "1", "1", "1"]}}, "data_format": {"s": "TkhXQw=="}, "explicit_paddings": {"list": {}}, "use_cudnn_on_gpu": {"b": true}}}, {"name": "StatefulPartitionedCall/sequential/efficientnet-b2/block4a_se_reduce/Sigmoid", "op": "Sigmoid", "input": ["StatefulPartitionedCall/sequential/efficientnet-b2/block4a_se_reduce/BiasAdd"], "attr": {"T": {"type": "DT_FLOAT"}}}, {"name": "StatefulPartitionedCall/sequential/efficientnet-b2/block4a_se_reduce/mul", "op": "Mul", "input": ["StatefulPartitionedCall/sequential/efficientnet-b2/block4a_se_reduce/BiasAdd", "StatefulPartitionedCall/sequential/efficientnet-b2/block4a_se_reduce/Sigmoid"], "attr": {"T": {"type": "DT_FLOAT"}}}, {"name": "StatefulPartitionedCall/sequential/efficientnet-b2/block4a_se_expand/BiasAdd", "op": "_FusedConv2D", "input": ["StatefulPartitionedCall/sequential/efficientnet-b2/block4a_se_reduce/mul", "Func/StatefulPartitionedCall/input/_161", "Func/StatefulPartitionedCall/input/_162"], "device": "/device:CPU:0", "attr": {"epsilon": {"f": 0.0}, "padding": {"s": "U0FNRQ=="}, "fused_ops": {"list": {"s": ["Qmlhc0FkZA=="]}}, "dilations": {"list": {"i": ["1", "1", "1", "1"]}}, "T": {"type": "DT_FLOAT"}, "strides": {"list": {"i": ["1", "1", "1", "1"]}}, "data_format": {"s": "TkhXQw=="}, "explicit_paddings": {"list": {}}, "use_cudnn_on_gpu": {"b": true}, "num_args": {"i": "1"}}}, {"name": "StatefulPartitionedCall/sequential/efficientnet-b2/block4a_se_expand/Sigmoid", "op": "Sigmoid", "input": ["StatefulPartitionedCall/sequential/efficientnet-b2/block4a_se_expand/BiasAdd"], "attr": {"T": {"type": "DT_FLOAT"}}}, {"name": "StatefulPartitionedCall/sequential/efficientnet-b2/block4a_se_excite/mul", "op": "Mul", "input": ["StatefulPartitionedCall/sequential/efficientnet-b2/block4a_activation/mul", "StatefulPartitionedCall/sequential/efficientnet-b2/block4a_se_expand/Sigmoid"], "attr": {"T": {"type": "DT_FLOAT"}}}, {"name": "StatefulPartitionedCall/sequential/efficientnet-b2/block4a_project_bn/FusedBatchNormV3", "op": "_FusedConv2D", "input": ["StatefulPartitionedCall/sequential/efficientnet-b2/block4a_se_excite/mul", "StatefulPartitionedCall/sequential/efficientnet-b2/block4a_project_conv/Conv2D_weights", "StatefulPartitionedCall/sequential/efficientnet-b2/block4a_project_conv/Conv2D_bn_offset"], "device": "/device:CPU:0", "attr": {"dilations": {"list": {"i": ["1", "1", "1", "1"]}}, "T": {"type": "DT_FLOAT"}, "data_format": {"s": "TkhXQw=="}, "strides": {"list": {"i": ["1", "1", "1", "1"]}}, "use_cudnn_on_gpu": {"b": true}, "explicit_paddings": {"list": {}}, "num_args": {"i": "1"}, "epsilon": {"f": 0.0}, "padding": {"s": "U0FNRQ=="}, "fused_ops": {"list": {"s": ["Qmlhc0FkZA=="]}}}}, {"name": "StatefulPartitionedCall/sequential/efficientnet-b2/block4b_expand_bn/FusedBatchNormV3", "op": "_FusedConv2D", "input": ["StatefulPartitionedCall/sequential/efficientnet-b2/block4a_project_bn/FusedBatchNormV3", "StatefulPartitionedCall/sequential/efficientnet-b2/block4b_expand_conv/Conv2D_weights", "StatefulPartitionedCall/sequential/efficientnet-b2/block4b_expand_conv/Conv2D_bn_offset"], "device": "/device:CPU:0", "attr": {"dilations": {"list": {"i": ["1", "1", "1", "1"]}}, "T": {"type": "DT_FLOAT"}, "data_format": {"s": "TkhXQw=="}, "strides": {"list": {"i": ["1", "1", "1", "1"]}}, "use_cudnn_on_gpu": {"b": true}, "explicit_paddings": {"list": {}}, "num_args": {"i": "1"}, "epsilon": {"f": 0.0}, "padding": {"s": "U0FNRQ=="}, "fused_ops": {"list": {"s": ["Qmlhc0FkZA=="]}}}}, {"name": "StatefulPartitionedCall/sequential/efficientnet-b2/block4b_expand_activation/Sigmoid", "op": "Sigmoid", "input": ["StatefulPartitionedCall/sequential/efficientnet-b2/block4b_expand_bn/FusedBatchNormV3"], "attr": {"T": {"type": "DT_FLOAT"}}}, {"name": "StatefulPartitionedCall/sequential/efficientnet-b2/block4b_expand_activation/mul", "op": "Mul", "input": ["StatefulPartitionedCall/sequential/efficientnet-b2/block4b_expand_activation/Sigmoid", "StatefulPartitionedCall/sequential/efficientnet-b2/block4b_expand_bn/FusedBatchNormV3"], "attr": {"T": {"type": "DT_FLOAT"}}}, {"name": "StatefulPartitionedCall/sequential/efficientnet-b2/block4b_dwconv/depthwise", "op": "FusedDepthwiseConv2dNative", "input": ["StatefulPartitionedCall/sequential/efficientnet-b2/block4b_expand_activation/mul", "StatefulPartitionedCall/sequential/efficientnet-b2/block4b_dwconv/depthwise_weights", "StatefulPartitionedCall/sequential/efficientnet-b2/block4b_dwconv/depthwise_bn_offset"], "attr": {"strides": {"list": {"i": ["1", "1", "1", "1"]}}, "data_format": {"s": "TkhXQw=="}, "num_args": {"i": "1"}, "padding": {"s": "U0FNRQ=="}, "fused_ops": {"list": {"s": ["Qmlhc0FkZA=="]}}, "dilations": {"list": {"i": ["1", "1", "1", "1"]}}, "T": {"type": "DT_FLOAT"}}}, {"name": "StatefulPartitionedCall/sequential/efficientnet-b2/block4b_activation/Sigmoid", "op": "Sigmoid", "input": ["StatefulPartitionedCall/sequential/efficientnet-b2/block4b_dwconv/depthwise"], "attr": {"T": {"type": "DT_FLOAT"}}}, {"name": "StatefulPartitionedCall/sequential/efficientnet-b2/block4b_activation/mul", "op": "Mul", "input": ["StatefulPartitionedCall/sequential/efficientnet-b2/block4b_activation/Sigmoid", "StatefulPartitionedCall/sequential/efficientnet-b2/block4b_dwconv/depthwise"], "attr": {"T": {"type": "DT_FLOAT"}}}, {"name": "StatefulPartitionedCall/sequential/efficientnet-b2/block4b_se_squeeze/Mean", "op": "Mean", "input": ["StatefulPartitionedCall/sequential/efficientnet-b2/block4b_activation/mul", "StatefulPartitionedCall/sequential/efficientnet-b2/block7b_se_squeeze/Mean/reduction_indices"], "attr": {"keep_dims": {"b": false}, "Tidx": {"type": "DT_INT32"}, "T": {"type": "DT_FLOAT"}}}, {"name": "StatefulPartitionedCall/sequential/efficientnet-b2/block4b_se_reshape/Shape", "op": "Shape", "input": ["StatefulPartitionedCall/sequential/efficientnet-b2/block4b_se_squeeze/Mean"], "attr": {"T": {"type": "DT_FLOAT"}, "out_type": {"type": "DT_INT32"}}}, {"name": "StatefulPartitionedCall/sequential/efficientnet-b2/block4b_se_reshape/strided_slice", "op": "StridedSlice", "input": ["StatefulPartitionedCall/sequential/efficientnet-b2/block4b_se_reshape/Shape", "StatefulPartitionedCall/sequential/efficientnet-b2/block7b_se_reshape/strided_slice/stack", "StatefulPartitionedCall/sequential/efficientnet-b2/block7b_se_reshape/strided_slice/stack_1", "StatefulPartitionedCall/sequential/efficientnet-b2/block7b_se_reshape/strided_slice/stack_1"], "attr": {"shrink_axis_mask": {"i": "1"}, "ellipsis_mask": {"i": "0"}, "begin_mask": {"i": "0"}, "new_axis_mask": {"i": "0"}, "end_mask": {"i": "0"}, "T": {"type": "DT_INT32"}, "Index": {"type": "DT_INT32"}}}, {"name": "StatefulPartitionedCall/sequential/efficientnet-b2/block4b_se_reshape/Reshape/shape", "op": "Pack", "input": ["StatefulPartitionedCall/sequential/efficientnet-b2/block4b_se_reshape/strided_slice", "StatefulPartitionedCall/sequential/efficientnet-b2/block7b_se_reshape/Reshape/shape/1", "StatefulPartitionedCall/sequential/efficientnet-b2/block7b_se_reshape/Reshape/shape/1", "StatefulPartitionedCall/sequential/efficientnet-b2/block4d_se_reshape/Reshape/shape/3"], "attr": {"T": {"type": "DT_INT32"}, "axis": {"i": "0"}, "N": {"i": "4"}}}, {"name": "StatefulPartitionedCall/sequential/efficientnet-b2/block4b_se_reshape/Reshape", "op": "Reshape", "input": ["StatefulPartitionedCall/sequential/efficientnet-b2/block4b_se_squeeze/Mean", "StatefulPartitionedCall/sequential/efficientnet-b2/block4b_se_reshape/Reshape/shape"], "attr": {"T": {"type": "DT_FLOAT"}, "Tshape": {"type": "DT_INT32"}}}, {"name": "StatefulPartitionedCall/sequential/efficientnet-b2/block4b_se_reduce/BiasAdd", "op": "_FusedConv2D", "input": ["StatefulPartitionedCall/sequential/efficientnet-b2/block4b_se_reshape/Reshape", "Func/StatefulPartitionedCall/input/_178", "Func/StatefulPartitionedCall/input/_179"], "device": "/device:CPU:0", "attr": {"dilations": {"list": {"i": ["1", "1", "1", "1"]}}, "T": {"type": "DT_FLOAT"}, "strides": {"list": {"i": ["1", "1", "1", "1"]}}, "data_format": {"s": "TkhXQw=="}, "use_cudnn_on_gpu": {"b": true}, "explicit_paddings": {"list": {}}, "num_args": {"i": "1"}, "epsilon": {"f": 0.0}, "padding": {"s": "U0FNRQ=="}, "fused_ops": {"list": {"s": ["Qmlhc0FkZA=="]}}}}, {"name": "StatefulPartitionedCall/sequential/efficientnet-b2/block4b_se_reduce/Sigmoid", "op": "Sigmoid", "input": ["StatefulPartitionedCall/sequential/efficientnet-b2/block4b_se_reduce/BiasAdd"], "attr": {"T": {"type": "DT_FLOAT"}}}, {"name": "StatefulPartitionedCall/sequential/efficientnet-b2/block4b_se_reduce/mul", "op": "Mul", "input": ["StatefulPartitionedCall/sequential/efficientnet-b2/block4b_se_reduce/BiasAdd", "StatefulPartitionedCall/sequential/efficientnet-b2/block4b_se_reduce/Sigmoid"], "attr": {"T": {"type": "DT_FLOAT"}}}, {"name": "StatefulPartitionedCall/sequential/efficientnet-b2/block4b_se_expand/BiasAdd", "op": "_FusedConv2D", "input": ["StatefulPartitionedCall/sequential/efficientnet-b2/block4b_se_reduce/mul", "Func/StatefulPartitionedCall/input/_180", "Func/StatefulPartitionedCall/input/_181"], "device": "/device:CPU:0", "attr": {"epsilon": {"f": 0.0}, "padding": {"s": "U0FNRQ=="}, "fused_ops": {"list": {"s": ["Qmlhc0FkZA=="]}}, "dilations": {"list": {"i": ["1", "1", "1", "1"]}}, "T": {"type": "DT_FLOAT"}, "strides": {"list": {"i": ["1", "1", "1", "1"]}}, "data_format": {"s": "TkhXQw=="}, "explicit_paddings": {"list": {}}, "use_cudnn_on_gpu": {"b": true}, "num_args": {"i": "1"}}}, {"name": "StatefulPartitionedCall/sequential/efficientnet-b2/block4b_se_expand/Sigmoid", "op": "Sigmoid", "input": ["StatefulPartitionedCall/sequential/efficientnet-b2/block4b_se_expand/BiasAdd"], "attr": {"T": {"type": "DT_FLOAT"}}}, {"name": "StatefulPartitionedCall/sequential/efficientnet-b2/block4b_se_excite/mul", "op": "Mul", "input": ["StatefulPartitionedCall/sequential/efficientnet-b2/block4b_activation/mul", "StatefulPartitionedCall/sequential/efficientnet-b2/block4b_se_expand/Sigmoid"], "attr": {"T": {"type": "DT_FLOAT"}}}, {"name": "StatefulPartitionedCall/sequential/efficientnet-b2/block4b_project_bn/FusedBatchNormV3", "op": "_FusedConv2D", "input": ["StatefulPartitionedCall/sequential/efficientnet-b2/block4b_se_excite/mul", "StatefulPartitionedCall/sequential/efficientnet-b2/block4b_project_conv/Conv2D_weights", "StatefulPartitionedCall/sequential/efficientnet-b2/block4b_project_conv/Conv2D_bn_offset"], "device": "/device:CPU:0", "attr": {"fused_ops": {"list": {"s": ["Qmlhc0FkZA=="]}}, "dilations": {"list": {"i": ["1", "1", "1", "1"]}}, "T": {"type": "DT_FLOAT"}, "data_format": {"s": "TkhXQw=="}, "strides": {"list": {"i": ["1", "1", "1", "1"]}}, "use_cudnn_on_gpu": {"b": true}, "explicit_paddings": {"list": {}}, "num_args": {"i": "1"}, "epsilon": {"f": 0.0}, "padding": {"s": "U0FNRQ=="}}}, {"name": "StatefulPartitionedCall/sequential/efficientnet-b2/block4b_add/add", "op": "AddV2", "input": ["StatefulPartitionedCall/sequential/efficientnet-b2/block4a_project_bn/FusedBatchNormV3", "StatefulPartitionedCall/sequential/efficientnet-b2/block4b_project_bn/FusedBatchNormV3"], "attr": {"T": {"type": "DT_FLOAT"}}}, {"name": "StatefulPartitionedCall/sequential/efficientnet-b2/block4c_expand_bn/FusedBatchNormV3", "op": "_FusedConv2D", "input": ["StatefulPartitionedCall/sequential/efficientnet-b2/block4b_add/add", "StatefulPartitionedCall/sequential/efficientnet-b2/block4c_expand_conv/Conv2D_weights", "StatefulPartitionedCall/sequential/efficientnet-b2/block4c_expand_conv/Conv2D_bn_offset"], "device": "/device:CPU:0", "attr": {"dilations": {"list": {"i": ["1", "1", "1", "1"]}}, "T": {"type": "DT_FLOAT"}, "data_format": {"s": "TkhXQw=="}, "strides": {"list": {"i": ["1", "1", "1", "1"]}}, "use_cudnn_on_gpu": {"b": true}, "explicit_paddings": {"list": {}}, "num_args": {"i": "1"}, "epsilon": {"f": 0.0}, "padding": {"s": "U0FNRQ=="}, "fused_ops": {"list": {"s": ["Qmlhc0FkZA=="]}}}}, {"name": "StatefulPartitionedCall/sequential/efficientnet-b2/block4c_expand_activation/Sigmoid", "op": "Sigmoid", "input": ["StatefulPartitionedCall/sequential/efficientnet-b2/block4c_expand_bn/FusedBatchNormV3"], "attr": {"T": {"type": "DT_FLOAT"}}}, {"name": "StatefulPartitionedCall/sequential/efficientnet-b2/block4c_expand_activation/mul", "op": "Mul", "input": ["StatefulPartitionedCall/sequential/efficientnet-b2/block4c_expand_activation/Sigmoid", "StatefulPartitionedCall/sequential/efficientnet-b2/block4c_expand_bn/FusedBatchNormV3"], "attr": {"T": {"type": "DT_FLOAT"}}}, {"name": "StatefulPartitionedCall/sequential/efficientnet-b2/block4c_dwconv/depthwise", "op": "FusedDepthwiseConv2dNative", "input": ["StatefulPartitionedCall/sequential/efficientnet-b2/block4c_expand_activation/mul", "StatefulPartitionedCall/sequential/efficientnet-b2/block4c_dwconv/depthwise_weights", "StatefulPartitionedCall/sequential/efficientnet-b2/block4c_dwconv/depthwise_bn_offset"], "attr": {"strides": {"list": {"i": ["1", "1", "1", "1"]}}, "data_format": {"s": "TkhXQw=="}, "num_args": {"i": "1"}, "padding": {"s": "U0FNRQ=="}, "fused_ops": {"list": {"s": ["Qmlhc0FkZA=="]}}, "dilations": {"list": {"i": ["1", "1", "1", "1"]}}, "T": {"type": "DT_FLOAT"}}}, {"name": "StatefulPartitionedCall/sequential/efficientnet-b2/block4c_activation/Sigmoid", "op": "Sigmoid", "input": ["StatefulPartitionedCall/sequential/efficientnet-b2/block4c_dwconv/depthwise"], "attr": {"T": {"type": "DT_FLOAT"}}}, {"name": "StatefulPartitionedCall/sequential/efficientnet-b2/block4c_activation/mul", "op": "Mul", "input": ["StatefulPartitionedCall/sequential/efficientnet-b2/block4c_activation/Sigmoid", "StatefulPartitionedCall/sequential/efficientnet-b2/block4c_dwconv/depthwise"], "attr": {"T": {"type": "DT_FLOAT"}}}, {"name": "StatefulPartitionedCall/sequential/efficientnet-b2/block4c_se_squeeze/Mean", "op": "Mean", "input": ["StatefulPartitionedCall/sequential/efficientnet-b2/block4c_activation/mul", "StatefulPartitionedCall/sequential/efficientnet-b2/block7b_se_squeeze/Mean/reduction_indices"], "attr": {"T": {"type": "DT_FLOAT"}, "keep_dims": {"b": false}, "Tidx": {"type": "DT_INT32"}}}, {"name": "StatefulPartitionedCall/sequential/efficientnet-b2/block4c_se_reshape/Shape", "op": "Shape", "input": ["StatefulPartitionedCall/sequential/efficientnet-b2/block4c_se_squeeze/Mean"], "attr": {"T": {"type": "DT_FLOAT"}, "out_type": {"type": "DT_INT32"}}}, {"name": "StatefulPartitionedCall/sequential/efficientnet-b2/block4c_se_reshape/strided_slice", "op": "StridedSlice", "input": ["StatefulPartitionedCall/sequential/efficientnet-b2/block4c_se_reshape/Shape", "StatefulPartitionedCall/sequential/efficientnet-b2/block7b_se_reshape/strided_slice/stack", "StatefulPartitionedCall/sequential/efficientnet-b2/block7b_se_reshape/strided_slice/stack_1", "StatefulPartitionedCall/sequential/efficientnet-b2/block7b_se_reshape/strided_slice/stack_1"], "attr": {"T": {"type": "DT_INT32"}, "Index": {"type": "DT_INT32"}, "shrink_axis_mask": {"i": "1"}, "ellipsis_mask": {"i": "0"}, "begin_mask": {"i": "0"}, "new_axis_mask": {"i": "0"}, "end_mask": {"i": "0"}}}, {"name": "StatefulPartitionedCall/sequential/efficientnet-b2/block4c_se_reshape/Reshape/shape", "op": "Pack", "input": ["StatefulPartitionedCall/sequential/efficientnet-b2/block4c_se_reshape/strided_slice", "StatefulPartitionedCall/sequential/efficientnet-b2/block7b_se_reshape/Reshape/shape/1", "StatefulPartitionedCall/sequential/efficientnet-b2/block7b_se_reshape/Reshape/shape/1", "StatefulPartitionedCall/sequential/efficientnet-b2/block4d_se_reshape/Reshape/shape/3"], "attr": {…
block1b_project_conv/Conv2D_weights", "shape": [1, 1, 16, 16], "dtype": "float32", "quantization": {"min": -6.283692040446695, "scale": 0.00015008340595315504, "dtype": "uint16"}}, {"name": "StatefulPartitionedCall/sequential/efficientnet-b2/block1b_project_conv/Conv2D_bn_offset", "shape": [16], "dtype": "float32", "quantization": {"min": -44.51534902686575, "scale": 0.0017568611976819697, "dtype": "uint16"}}, {"name": "StatefulPartitionedCall/sequential/efficientnet-b2/block2a_expand_conv/Conv2D_weights", "shape": [1, 1, 16, 96], "dtype": "float32", "quantization": {"min": -0.5692049792468289, "scale": 1.7443687881058774e-05, "dtype": "uint16"}}, {"name": "StatefulPartitionedCall/sequential/efficientnet-b2/block2a_expand_conv/Conv2D_bn_offset", "shape": [96], "dtype": "float32", "quantization": {"min": -14.93291201476166, "scale": 0.0004610488750736874, "dtype": "uint16"}}, {"name": "StatefulPartitionedCall/sequential/efficientnet-b2/block2a_dwconv/depthwise_weights", "shape": [3, 3, 96, 1], "dtype": "float32", "quantization": {"min": -49.750446759287456, "scale": 0.0012942700579954593, "dtype": "uint16"}}, {"name": "StatefulPartitionedCall/sequential/efficientnet-b2/block2a_dwconv/depthwise_bn_offset", "shape": [96], "dtype": "float32", "quantization": {"min": -18.99474798583635, "scale": 0.0009519745394595475, "dtype": "uint16"}}, {"name": "StatefulPartitionedCall/sequential/efficientnet-b2/block2a_project_conv/Conv2D_weights", "shape": [1, 1, 96, 24], "dtype": "float32", "quantization": {"min": -1.766773853882632, "scale": 4.458847804064789e-05, "dtype": "uint16"}}, {"name": "StatefulPartitionedCall/sequential/efficientnet-b2/block2a_project_conv/Conv2D_bn_offset", "shape": [24], "dtype": "float32", "quantization": {"min": -41.029220772910065, "scale": 0.002455516235137355, "dtype": "uint16"}}, {"name": "StatefulPartitionedCall/sequential/efficientnet-b2/block2b_expand_conv/Conv2D_weights", "shape": [1, 1, 24, 144], "dtype": "float32", "quantization": {"min": -0.3247606763830081, "scale": 8.830057271350719e-06, "dtype": "uint16"}}, {"name": "StatefulPartitionedCall/sequential/efficientnet-b2/block7b_project_conv/Conv2D_bn_offset", "shape": [352], "dtype": "float32", "quantization": {"min": -14.529767941520898, "scale": 0.00023776027133447168, "dtype": "uint16"}}, {"name": "StatefulPartitionedCall/sequential/efficientnet-b2/block2b_expand_conv/Conv2D_bn_offset", "shape": [144], "dtype": "float32", "quantization": {"min": -5.101746351993392, "scale": 0.00017374153221609426, "dtype": "uint16"}}, {"name": "StatefulPartitionedCall/sequential/efficientnet-b2/block2b_dwconv/depthwise_weights", "shape": [3, 3, 144, 1], "dtype": "float32", "quantization": {"min": -32.185932489640926, "scale": 0.001065512380893201, "dtype": "uint16"}}, {"name": "StatefulPartitionedCall/sequential/efficientnet-b2/block2b_dwconv/depthwise_bn_offset", "shape": [144], "dtype": "float32", "quantization": {"min": -9.54941859077587, "scale": 0.00024106779569272384, "dtype": "uint16"}}, {"name": "StatefulPartitionedCall/sequential/efficientnet-b2/block2b_project_conv/Conv2D_weights", "shape": [1, 1, 144, 24], "dtype": "float32", "quantization": {"min": -6.15694638810551, "scale": 0.00015761984506951795, "dtype": "uint16"}}, {"name": "StatefulPartitionedCall/sequential/efficientnet-b2/block2b_project_conv/Conv2D_bn_offset", "shape": [24], "dtype": "float32", "quantization": {"min": -6.696143631932572, "scale": 0.0002451004257661996, "dtype": "uint16"}}, {"name": "StatefulPartitionedCall/sequential/efficientnet-b2/block2c_expand_conv/Conv2D_weights", "shape": [1, 1, 24, 144], "dtype": "float32", "quantization": {"min": -0.2043486035696891, "scale": 9.524077347580588e-06, "dtype": "uint16"}}, {"name": "StatefulPartitionedCall/sequential/efficientnet-b2/block2c_expand_conv/Conv2D_bn_offset", "shape": [144], "dtype": "float32", "quantization": {"min": -5.378670686986796, "scale": 0.0001723932912495768, "dtype": "uint16"}}, {"name": "StatefulPartitionedCall/sequential/efficientnet-b2/block2c_dwconv/depthwise_weights", "shape": [3, 3, 144, 1], "dtype": "float32", "quantization": {"min": -23.332666703824678, "scale": 0.0010378376792022363, "dtype": "uint16"}}, {"name": "StatefulPartitionedCall/sequential/efficientnet-b2/block2c_dwconv/depthwise_bn_offset", "shape": [144], "dtype": "float32", "quantization": {"min": -15.445738832103112, "scale": 0.0004571909434082143, "dtype": "uint16"}}, {"name": "StatefulPartitionedCall/sequential/efficientnet-b2/block2c_project_conv/Conv2D_weights", "shape": [1, 1, 144, 24], "dtype": "float32", "quantization": {"min": -6.054856115323578, "scale": 0.00017434080378127205, "dtype": "uint16"}}, {"name": "StatefulPartitionedCall/sequential/efficientnet-b2/block2c_project_conv/Conv2D_bn_offset", "shape": [24], "dtype": "float32", "quantization": {"min": -3.8210593054403184, "scale": 0.00019802338854893855, "dtype": "uint16"}}, {"name": "StatefulPartitionedCall/sequential/efficientnet-b2/block3a_expand_conv/Conv2D_weights", "shape": [1, 1, 24, 144], "dtype": "float32", "quantization": {"min": -0.18286583630686867, "scale": 6.93803681401027e-06, "dtype": "uint16"}}, {"name": "StatefulPartitionedCall/sequential/efficientnet-b2/block6e_project_conv/Conv2D_weights", "shape": [1, 1, 1248, 208], "dtype": "float32", "quantization": {"min": -0.7523574746481803, "scale": 2.0140204375419752e-05, "dtype": "uint16"}}, {"name": "StatefulPartitionedCall/sequential/efficientnet-b2/block3a_expand_conv/Conv2D_bn_offset", "shape": [144], "dtype": "float32", "quantization": {"min": -8.681677396621058, "scale": 0.00032272693939337045, "dtype": "uint16"}}, {"name": "StatefulPartitionedCall/sequential/efficientnet-b2/block3a_dwconv/depthwise_weights", "shape": [5, 5, 144, 1], "dtype": "float32", "quantization": {"min": -23.382648714618096, "scale": 0.0006980520259909274, "dtype": "uint16"}}, {"name": "StatefulPartitionedCall/sequential/efficientnet-b2/block3a_dwconv/depthwise_bn_offset", "shape": [144], "dtype": "float32", "quantization": {"min": -4.039480566496415, "scale": 0.0002986676943805113, "dtype": "uint16"}}, {"name": "StatefulPartitionedCall/sequential/efficientnet-b2/block6e_project_conv/Conv2D_bn_offset", "shape": [208], "dtype": "float32", "quantization": {"min": -1.482338470325614, "scale": 4.463396074570516e-05, "dtype": "uint16"}}, {"name": "StatefulPartitionedCall/sequential/efficientnet-b2/block3a_project_conv/Conv2D_weights", "shape": [1, 1, 144, 48], "dtype": "float32", "quantization": {"min": -4.854184996102216, "scale": 0.00018237160446715316, "dtype": "uint16"}}, {"name": "StatefulPartitionedCall/sequential/efficientnet-b2/block3a_project_conv/Conv2D_bn_offset", "shape": [48], "dtype": "float32", "quantization": {"min": -55.31416366843743, "scale": 0.0016369980369469498, "dtype": "uint16"}}, {"name": "StatefulPartitionedCall/sequential/efficientnet-b2/block3b_expand_conv/Conv2D_weights", "shape": [1, 1, 48, 288], "dtype": "float32", "quantization": {"min": -0.1281278212580972, "scale": 6.00946584391432e-06, "dtype": "uint16"}}, {"name": "StatefulPartitionedCall/sequential/efficientnet-b2/block3b_expand_conv/Conv2D_bn_offset", "shape": [288], "dtype": "float32", "quantization": {"min": -3.9911660628559993, "scale": 0.00012794249279871772, "dtype": "uint16"}}, {"name": "StatefulPartitionedCall/sequential/efficientnet-b2/block3b_dwconv/depthwise_weights", "shape": [5, 5, 288, 1], "dtype": "float32", "quantization": {"min": -23.901097393843536, "scale": 0.0006460978399654944, "dtype": "uint16"}}, {"name": "StatefulPartitionedCall/sequential/efficientnet-b2/block3b_dwconv/depthwise_bn_offset", "shape": [288], "dtype": "float32", "quantization": {"min": -16.023185414526512, "scale": 0.00034343983312670696, "dtype": "uint16"}}, {"name": "StatefulPartitionedCall/sequential/efficientnet-b2/block7a_expand_conv/Conv2D_weights", "shape": [1, 1, 208, 1248], "dtype": "float32", "quantization": {"min": -0.10364506244022767, "scale": 3.6143486692784097e-06, "dtype": "uint16"}}, {"name": "StatefulPartitionedCall/sequential/efficientnet-b2/top_conv/Conv2D_weights", "shape": [1, 1, 352, 1408], "dtype": "float32", "quantization": {"min": -0.07763255236793586, "scale": 2.3600107118995548e-06, "dtype": "uint16"}}, {"name": "StatefulPartitionedCall/sequential/efficientnet-b2/block3b_project_conv/Conv2D_weights", "shape": [1, 1, 288, 48], "dtype": "float32", "quantization": {"min": -3.5001229344475155, "scale": 9.572593081849677e-05, "dtype": "uint16"}}, {"name": "StatefulPartitionedCall/sequential/efficientnet-b2/block7a_expand_conv/Conv2D_bn_offset", "shape": [1248], "dtype": "float32", "quantization": {"min": -2.887832683511718, "scale": 0.0001739658243079348, "dtype": "uint16"}}, {"name": "StatefulPartitionedCall/sequential/efficientnet-b2/block3b_project_conv/Conv2D_bn_offset", "shape": [48], "dtype": "float32", "quantization": {"min": -3.2224431033900998, "scale": 0.00015605051348136076, "dtype": "uint16"}}, {"name": "StatefulPartitionedCall/sequential/efficientnet-b2/block3c_expand_conv/Conv2D_weights", "shape": [1, 1, 48, 288], "dtype": "float32", "quantization": {"min": -0.1364050915589674, "scale": 4.746010631466108e-06, "dtype": "uint16"}}, {"name": "StatefulPartitionedCall/sequential/efficientnet-b2/block3c_expand_conv/Conv2D_bn_offset", "shape": [288], "dtype": "float32", "quantization": {"min": -4.762032001984604, "scale": 0.00013142803527128871, "dtype": "uint16"}}, {"name": "StatefulPartitionedCall/sequential/efficientnet-b2/block3c_dwconv/depthwise_weights", "shape": [5, 5, 288, 1], "dtype": "float32", "quantization": {"min": -22.672101605241373, "scale": 0.0007336537425247184, "dtype": "uint16"}}, {"name": "StatefulPartitionedCall/sequential/efficientnet-b2/block3c_dwconv/depthwise_bn_offset", "shape": [288], "dtype": "float32", "quantization": {"min": -8.300458624969224, "scale": 0.0002560684443920785, "dtype": "uint16"}}, {"name": "StatefulPartitionedCall/sequential/efficientnet-b2/block3c_project_conv/Conv2D_weights", "shape": [1, 1, 288, 48], "dtype": "float32", "quantization": {"min": -2.537446226622189, "scale": 8.905819972701773e-05, "dtype": "uint16"}}, {"name": "StatefulPartitionedCall/sequential/efficientnet-b2/block7a_dwconv/depthwise_weights", "shape": [3, 3, 1248, 1], "dtype": "float32", "quantization": {"min": -58.909212433301384, "scale": 0.001298703977806468, "dtype": "uint16"}}, {"name": "StatefulPartitionedCall/sequential/efficientnet-b2/block3c_project_conv/Conv2D_bn_offset", "shape": [48], "dtype": "float32", "quantization": {"min": -1.4645748346887102, "scale": 7.268361462474988e-05, "dtype": "uint16"}}, {"name": "StatefulPartitionedCall/sequential/efficientnet-b2/block4a_expand_conv/Conv2D_weights", "shape": [1, 1, 48, 288], "dtype": "float32", "quantization": {"min": -0.16705970038918014, "scale": 5.815222096532308e-06, "dtype": "uint16"}}, {"name": "StatefulPartitionedCall/sequential/efficientnet-b2/block4a_expand_conv/Conv2D_bn_offset", "shape": [288], "dtype": "float32", "quantization": {"min": -4.414988978118093, "scale": 0.0002012301266234318, "dtype": "uint16"}}, {"name": "StatefulPartitionedCall/sequential/efficientnet-b2/block4a_dwconv/depthwise_weights", "shape": [3, 3, 288, 1], "dtype": "float32", "quantization": {"min": -18.97018439060874, "scale": 0.0005664601627581815, "dtype": "uint16"}}, {"name": "StatefulPartitionedCall/sequential/efficientnet-b2/block4a_dwconv/depthwise_bn_offset", "shape": [288], "dtype": "float32", "quantization": {"min": -5.797681321739068, "scale": 0.0007083300331996418, "dtype": "uint16"}}, {"name": "StatefulPartitionedCall/sequential/efficientnet-b2/block7a_dwconv/depthwise_bn_offset", "shape": [1248], "dtype": "float32", "quantization": {"min": -16.237087661988806, "scale": 0.0005494970273778742, "dtype": "uint16"}}, {"name": "StatefulPartitionedCall/sequential/efficientnet-b2/block4a_project_conv/Conv2D_weights", "shape": [1, 1, 288, 88], "dtype": "float32", "quantization": {"min": -4.495433286435636, "scale": 0.0001346018709634001, "dtype": "uint16"}}, {"name": "StatefulPartitionedCall/sequential/efficientnet-b2/block4a_project_conv/Conv2D_bn_offset", "shape": [88], "dtype": "float32", "quantization": {"min": -41.84274301305555, "scale": 0.0014523687265899185, "dtype": "uint16"}}, {"name": "StatefulPartitionedCall/sequential/efficientnet-b2/block4b_expand_conv/Conv2D_weights", "shape": [1, 1, 88, 528], "dtype": "float32", "quantization": {"min": -0.10323834545615336, "scale": 3.269622975650146e-06, "dtype": "uint16"}}, {"name": "StatefulPartitionedCall/sequential/efficientnet-b2/block4b_expand_conv/Conv2D_bn_offset", "shape": [528], "dtype": "float32", "quantization": {"min": -6.801550260313754, "scale": 0.00015154969385725833, "dtype": "uint16"}}, {"name": "StatefulPartitionedCall/sequential/efficientnet-b2/block4b_dwconv/depthwise_weights", "shape": [3, 3, 528, 1], "dtype": "float32", "quantization": {"min": -24.52158206469081, "scale": 0.0009940241624991207, "dtype": "uint16"}}, {"name": "StatefulPartitionedCall/sequential/efficientnet-b2/block4b_dwconv/depthwise_bn_offset", "shape": [528], "dtype": "float32", "quantization": {"min": -7.381844967901547, "scale": 0.00020356410026477531, "dtype": "uint16"}}, {"name": "StatefulPartitionedCall/sequential/efficientnet-b2/block4b_project_conv/Conv2D_weights", "shape": [1, 1, 528, 88], "dtype": "float32", "quantization": {"min": -1.1714807695042597, "scale": 3.957705302379256e-05, "dtype": "uint16"}}, {"name": "StatefulPartitionedCall/sequential/efficientnet-b2/block4b_project_conv/Conv2D_bn_offset", "shape": [88], "dtype": "float32", "quantization": {"min": -3.508951497327147, "scale": 0.00010918727626496397, "dtype": "uint16"}}, {"name": "StatefulPartitionedCall/sequential/efficientnet-b2/block4c_expand_conv/Conv2D_weights", "shape": [1, 1, 88, 528], "dtype": "float32", "quantization": {"min": -0.11443039169230214, "scale": 4.0308003695904095e-06, "dtype": "uint16"}}, {"name": "StatefulPartitionedCall/sequential/efficientnet-b2/block4c_expand_conv/Conv2D_bn_offset", "shape": [528], "dtype": "float32", "quantization": {"min": -4.539027863875983, "scale": 0.00012648816675145557, "dtype": "uint16"}}, {"name": "StatefulPartitionedCall/sequential/efficientnet-b2/block4c_dwconv/depthwise_weights", "shape": [3, 3, 528, 1], "dtype": "float32", "quantization": {"min": -26.757570185639125, "scale": 0.0007065078072938274, "dtype": "uint16"}}, {"name": "StatefulPartitionedCall/sequential/efficientnet-b2/block4c_dwconv/depthwise_bn_offset", "shape": [528], "dtype": "float32", "quantization": {"min": -9.374143928687324, "scale": 0.00023883169245063246, "dtype": "uint16"}}, {"name": "StatefulPartitionedCall/sequential/efficientnet-b2/block4c_project_conv/Conv2D_weights", "shape": [1, 1, 528, 88], "dtype": "float32", "quantization": {"min": -1.1677211062298984, "scale": 3.174017684778196e-05, "dtype": "uint16"}}, {"name": "StatefulPartitionedCall/sequential/efficientnet-b2/block4c_project_conv/Conv2D_bn_offset", "shape": [88], "dtype": "float32", "quantization": {"min": -3.6915910474093705, "scale": 0.00010155683761786439, "dtype": "uint16"}}, {"name": "StatefulPartitionedCall/sequential/efficientnet-b2/block4d_expand_conv/Conv2D_weights", "shape": [1, 1, 88, 528], "dtype": "float32", "quantization": {"min": -0.08738131530362916, "scale": 2.5292727597438106e-06, "dtype": "uint16"}}, {"name": "StatefulPartitionedCall/sequential/efficientnet-b2/block4d_expand_conv/Conv2D_bn_offset", "shape": [528], "dtype": "float32", "quantization": {"min": -5.16408152808366, "scale": 0.000138931437398, "dtype": "uint16"}}, {"name": "StatefulPartitionedCall/sequential/efficientnet-b2/block4d_dwconv/depthwise_weights", "shape": [3, 3, 528, 1], "dtype": "float32", "quantization": {"min": -26.997870238014478, "scale": 0.0009339238355477542, "dtype": "uint16"}}, {"name": "StatefulPartitionedCall/sequential/efficientnet-b2/block4d_dwconv/depthwise_bn_offset", "shape": [528], "dtype": "float32", "quantization": {"min": -8.869578888575091, "scale": 0.00028315601100035407, "dtype": "uint16"}}, {"name": "StatefulPartitionedCall/sequential/efficientnet-b2/top_conv/Conv2D_bn_offset", "shape": [1408], "dtype": "float32", "quantization": {"min": -4.329789161682129, "scale": 5.112983382447612e-05, "dtype": "uint16"}}, {"name": "StatefulPartitionedCall/sequential/efficientnet-b2/block4d_project_conv/Conv2D_weights", "shape": [1, 1, 528, 88], "dtype": "float32", "quantization": {"min": -1.0338377439612845, "scale": 3.139977961917341e-05, "dtype": "uint16"}}, {"name": "StatefulPartitionedCall/sequential/efficientnet-b2/block4d_project_conv/Conv2D_bn_offset", "shape": [88], "dtype": "float32", "quantization": {"min": -2.2615571568357304, "scale": 5.0080985801756735e-05, "dtype": "uint16"}}, {"name": "StatefulPartitionedCall/sequential/efficientnet-b2/block5a_expand_conv/Conv2D_weights", "shape": [1, 1, 88, 528], "dtype": "float32", "quantization": {"min": -0.1812276567784856, "scale": 6.279109444199487e-06, "dtype": "uint16"}}, {"name": "StatefulPartitionedCall/sequential/efficientnet-b2/block5a_expand_conv/Conv2D_bn_offset", "shape": [528], "dtype": "float32", "quantization": {"min": -3.312604654780276, "scale": 0.00018473146636071135, "dtype": "uint16"}}, {"name": "StatefulPartitionedCall/sequential/efficientnet-b2/block5a_dwconv/depthwise_weights", "shape": [5, 5, 528, 1], "dtype": "float32", "quantization": {"min": -35.09722590546518, "scale": 0.001071671020014204, "dtype": "uint16"}}, {"name": "StatefulPartitionedCall/sequential/efficientnet-b2/block5a_dwconv/depthwise_bn_offset", "shape": [528], "dtype": "float32", "quantization": {"min": -5.277604125455015, "scale": 0.00042602551868380805, "dtype": "uint16"}}, {"name": "StatefulPartitionedCall/sequential/efficientnet-b2/block7a_project_conv/Conv2D_weights", "shape": [1, 1, 1248, 352], "dtype": "float32", "quantization": {"min": -1.4951039358144713, "scale": 5.142408804479849e-05, "dtype": "uint16"}}, {"name": "StatefulPartitionedCall/sequential/efficientnet-b2/block5a_project_conv/Conv2D_weights", "shape": [1, 1, 528, 120], "dtype": "float32", "quantization": {"min": -2.5233813187382426, "scale": 7.37658243316839e-05, "dtype": "uint16"}}, {"name": "StatefulPartitionedCall/sequential/efficientnet-b2/block5a_project_conv/Conv2D_bn_offset", "shape": [120], "dtype": "float32", "quantization": {"min": -27.840996509079638, "scale": 0.0009575249865552221, "dtype": "uint16"}}, {"name": "StatefulPartitionedCall/sequential/efficientnet-b2/block5b_expand_conv/Conv2D_weights", "shape": [1, 1, 120, 720], "dtype": "float32", "quantization": {"min": -0.08177118564785285, "scale": 2.612164121129979e-06, "dtype": "uint16"}}, {"name": "StatefulPartitionedCall/sequential/efficientnet-b2/block7a_project_conv/Conv2D_bn_offset", "shape": [352], "dtype": "float32", "quantization": {"min": -7.4632924324152645, "scale": 0.0002521723351944609, "dtype": "uint16"}}, {"name": "StatefulPartitionedCall/sequential/efficientnet-b2/block5b_expand_conv/Conv2D_bn_offset", "shape": [720], "dtype": "float32", "quantization": {"min": -4.8923576920622045, "scale": 0.00012162177924879939, "dtype": "uint16"}}, {"name": "StatefulPartitionedCall/sequential/efficientnet-b2/block5b_dwconv/depthwise_weights", "shape": [5, 5, 720, 1], "dtype": "float32", "quantization": {"min": -33.27106182764585, "scale": 0.0008999232324699319, "dtype": "uint16"}}, {"name": "StatefulPartitionedCall/sequential/efficientnet-b2/block5b_dwconv/depthwise_bn_offset", "shape": [720], "dtype": "float32", "quantization": {"min": -7.307455326332656, "scale": 0.00019627868187839528, "dtype": "uint16"}}, {"name": "StatefulPartitionedCall/sequential/efficientnet-b2/block7b_expand_conv/Conv2D_weights", "shape": [1, 1, 352, 2112], "dtype": "float32", "quantization": {"min": -0.0723555147794516, "scale": 2.157097301358006e-06, "dtype": "uint16"}}, {"name": "StatefulPartitionedCall/sequential/efficientnet-b2/block5b_project_conv/Conv2D_weights", "shape": [1, 1, 720, 120], "dtype": "float32", "quantization": {"min": -1.7909654097325325, "scale": 5.179643721932303e-05, "dtype": "uint16"}}, {"name": "StatefulPartitionedCall/sequential/efficientnet-b2/block5b_project_conv/Conv2D_bn_offset", "shape": [120], "dtype": "float32", "quantization": {"min": -1.3414549395886533, "scale": 4.70818103182877e-05, "dtype": "uint16"}}, {"name": "StatefulPartitionedCall/sequential/efficientnet-b2/block5c_expand_conv/Conv2D_weights", "shape": [1, 1, 120, 720], "dtype": "float32", "quantization": {"min": -0.08490569254162747, "scale": 2.3159045480777772e-06, "dtype": "uint16"}}, {"name": "StatefulPartitionedCall/sequential/efficientnet-b2/block7b_expand_conv/Conv2D_bn_offset", "shape": [2112], "dtype": "float32", "quantization": {"min": -5.487066043537396, "scale": 0.00014238805385969992, "dtype": "uint16"}}, {"name": "StatefulPartitionedCall/sequential/efficientnet-b2/block5c_expand_conv/Conv2D_bn_offset", "shape": [720], "dtype": "float32", "quantization": {"min": -4.693158103960043, "scale": 0.00012120133526057648, "dtype": "uint16"}}, {"name": "StatefulPartitionedCall/sequential/efficientnet-b2/block5c_dwconv/depthwise_weights", "shape": [5, 5, 720, 1], "dtype": "float32", "quantization": {"min": -26.51143530160746, "scale": 0.0006280544703308883, "dtype": "uint16"}}, {"name": "StatefulPartitionedCall/sequential/efficientnet-b2/block5c_dwconv/depthwise_bn_offset", "shape": [720], "dtype": "float32", "quantization": {"min": -6.23242234221092, "scale": 0.00017387630683547928, "dtype": "uint16"}}, {"name": "StatefulPartitionedCall/sequential/efficientnet-b2/block5c_project_conv/Conv2D_weights", "shape": [1, 1, 720, 120], "dtype": "float32", "quantization": {"min": -1.0882830929063119, "scale": 4.144419410131048e-05, "dtype": "uint16"}}, {"name": "StatefulPartitionedCall/sequential/efficientnet-b2/block5c_project_conv/Conv2D_bn_offset", "shape": [120], "dtype": "float32", "quantization": {"min": -0.849225012158478, "scale": 3.104459923810923e-05, "dtype": "uint16"}}, {"name": "StatefulPartitionedCall/sequential/efficientnet-b2/block5d_expand_conv/Conv2D_weights", "shape": [1, 1, 120, 720], "dtype": "float32", "quantization": {"min": -0.09431349664092055, "scale": 2.8224897992195285e-06, "dtype": "uint16"}}, {"name": "StatefulPartitionedCall/sequential/efficientnet-b2/block7b_dwconv/depthwise_weights", "shape": [3, 3, 2112, 1], "dtype": "float32", "quantization": {"min": -32.83455742827049, "scale": 0.0010179679872351726, "dtype": "uint16"}}, {"name": "StatefulPartitionedCall/sequential/efficientnet-b2/block5d_expand_conv/Conv2D_bn_offset", "shape": [720], "dtype": "float32", "quantization": {"min": -4.964399003815195, "scale": 0.00011500982286146634, "dtype": "uint16"}}, {"name": "StatefulPartitionedCall/sequential/efficientnet-b2/block5d_dwconv/depthwise_weights", "shape": [5, 5, 720, 1], "dtype": "float32", "quantization": {"min": -24.14461497409198, "scale": 0.0005076770952730709, "dtype": "uint16"}}, {"name": "StatefulPartitionedCall/sequential/efficientnet-b2/block5d_dwconv/depthwise_bn_offset", "shape": [720], "dtype": "float32", "quantization": {"min": -10.801212345548796, "scale": 0.00023792788830867228, "dtype": "uint16"}}, {"name": "StatefulPartitionedCall/sequential/efficientnet-b2/block7b_dwconv/depthwise_bn_offset", "shape": [2112], "dtype": "float32", "quantization": {"min": -18.074234604262518, "scale": 0.0004266715753703293, "dtype": "uint16"}}, {"name": "StatefulPartitionedCall/sequential/efficientnet-b2/block5d_project_conv/Conv2D_weights", "shape": [1, 1, 720, 120], "dtype": "float32", "quantization": {"min": -1.0298120497674956, "scale": 3.73201438634303e-05, "dtype": "uint16"}}, {"name": "StatefulPartitionedCall/sequential/efficientnet-b2/block5d_project_conv/Conv2D_bn_offset", "shape": [120], "dtype": "float32", "quantization": {"min": -1.0022866860165098, "scale": 3.0266848437762637e-05, "dtype": "uint16"}}, {"name": "StatefulPartitionedCall/sequential/efficientnet-b2/block6a_expand_conv/Conv2D_weights", "shape": [1, 1, 120, 720], "dtype": "float32", "quantization": {"min": -0.32187116526694254, "scale": 7.182540005510511e-06, "dtype": "uint16"}}, {"name": "StatefulPartitionedCall/sequential/efficientnet-b2/block6a_expand_conv/Conv2D_bn_offset", "shape": [720], "dtype": "float32", "quantization": {"min": -4.934969849039691, "scale": 0.0002042450893568285, "dtype": "uint16"}}, {"name": "StatefulPartitionedCall/sequential/efficientnet-b2/block6a_dwconv/depthwise_weights", "shape": [5, 5, 720, 1], "dtype": "float32", "quantization": {"min": -13.528093475639535, "scale": 0.0003197450536680029, "dtype": "uint16"}}, {"name": "StatefulPartitionedCall/sequential/efficientnet-b2/block6a_dwconv/depthwise_bn_offset", "shape": [720], "dtype": "float32", "quantization": {"min": -5.420952602999702, "scale": 0.0002740900294771818, "dtype": "uint16"}}, {"name": "StatefulPartitionedCall/sequential/efficientnet-b2/block6a_project_conv/Conv2D_weights", "shape": [1, 1, 720, 208], "dtype": "float32", "quantization": {"min": -4.154515596271753, "scale": 9.832940276612986e-05, "dtype": "uint16"}}, {"name": "StatefulPartitionedCall/sequential/efficientnet-b2/block6a_project_conv/Conv2D_bn_offset", "shape": [208], "dtype": "float32", "quantization": {"min": -41.96461201478099, "scale": 0.0012526749855158504, "dtype": "uint16"}}, {"name": "StatefulPartitionedCall/sequential/efficientnet-b2/block6b_expand_conv/Conv2D_weights", "shape": [1, 1, 208, 1248], "dtype": "float32", "quantization": {"min": -0.07687145856681547, "scale": 2.4259620212331703e-06, "dtype": "uint16"}}, {"name": "StatefulPartitionedCall/sequential/efficientnet-b2/block6b_expand_conv/Conv2D_bn_offset", "shape": [1248], "dtype": "float32", "quantization": {"min": -5.0195668240310924, "scale": 0.00013463419853635954, "dtype": "uint16"}}, {"name": "StatefulPartitionedCall/sequential/efficientnet-b2/block6b_dwconv/depthwise_weights", "shape": [5, 5, 1248, 1], "dtype": "float32", "quantization": {"min": -18.716529308417172, "scale": 0.0004585923433322023, "dtype": "uint16"}}, {"name": "StatefulPartitionedCall/sequential/efficientnet-b2/block6b_dwconv/depthwise_bn_offset", "shape": [1248], "dtype": "float32", "quantization": {"min": -8.262384600620061, "scale": 0.00019850049492168127, "dtype": "uint16"}}, {"name": "StatefulPartitionedCall/sequential/efficientnet-b2/block6b_project_conv/Conv2D_weights", "shape": [1, 1, 1248, 208], "dtype": "float32", "quantization": {"min": -1.022953458682545, "scale": 3.2406812984937754e-05, "dtype": "uint16"}}, {"name": "StatefulPartitionedCall/sequential/efficientnet-b2/block6b_project_conv/Conv2D_bn_offset", "shape": [208], "dtype": "float32", "quantization": {"min": -4.801106446975518, "scale": 0.00012253347064916333, "dtype": "uint16"}}, {"name": "StatefulPartitionedCall/sequential/efficientnet-b2/block6c_expand_conv/Conv2D_weights", "shape": [1, 1, 208, 1248], "dtype": "float32", "quantization": {"min": -0.06079223155378476, "scale": 2.3166888286949722e-06, "dtype": "uint16"}}, {"name": "StatefulPartitionedCall/sequential/efficientnet-b2/block6c_expand_conv/Conv2D_bn_offset", "shape": [1248], "dtype": "float32", "quantization": {"min": -4.700210320046413, "scale": 0.00011782928854465812, "dtype": "uint16"}}, {"name": "StatefulPartitionedCall/sequential/efficientnet-b2/block6c_dwconv/depthwise_weights", "shape": [5, 5, 1248, 1], "dtype": "float32", "quantization": {"min": -23.779898649882043, "scale": 0.000682467530991908, "dtype": "uint16"}}, {"name": "StatefulPartitionedCall/sequential/efficientnet-b2/block6c_dwconv/depthwise_bn_offset", "shape": [1248], "dtype": "float32", "quantization": {"min": -10.435283666825944, "scale": 0.0002841311206149684, "dtype": "uint16"}}, {"name": "StatefulPartitionedCall/sequential/efficientnet-b2/block6c_project_conv/Conv2D_weights", "shape": [1, 1, 1248, 208], "dtype": "float32", "quantization": {"min": -1.0489295477924243, "scale": 2.8971152510424358e-05, "dtype": "uint16"}}, {"name": "StatefulPartitionedCall/sequential/efficientnet-b2/block6c_project_conv/Conv2D_bn_offset", "shape": [208], "dtype": "float32", "quantization": {"min": -2.258187244723716, "scale": 5.994497742889002e-05, "dtype": "uint16"}}, {"name": "StatefulPartitionedCall/sequential/efficientnet-b2/block6d_expand_conv/Conv2D_weights", "shape": [1, 1, 208, 1248], "dtype": "float32", "quantization": {"min": -0.06277729391197895, "scale": 1.9082984439912136e-06, "dtype": "uint16"}}, {"name": "StatefulPartitionedCall/sequential/efficientnet-b2/block6d_expand_conv/Conv2D_bn_offset", "shape": [1248], "dtype": "float32", "quantization": {"min": -5.486324256779973, "scale": 0.00012668154282765247, "dtype": "uint16"}}, {"name": "StatefulPartitionedCall/sequential/efficientnet-b2/block6d_dwconv/depthwise_weights", "shape": [5, 5, 1248, 1], "dtype": "float32", "quantization": {"min": -77.92186247037698, "scale": 0.0014945310995891092, "dtype": "uint16"}}, {"name": "StatefulPartitionedCall/sequential/efficientnet-b2/block6d_dwconv/depthwise_bn_offset", "shape": [1248], "dtype": "float32", "quantization": {"min": -9.84665705310568, "scale": 0.00029080499270837804, "dtype": "uint16"}}, {"name": "StatefulPartitionedCall/sequential/efficientnet-b2/block6d_project_conv/Conv2D_weights", "shape": [1, 1, 1248, 208], "dtype": "float32", "quantization": {"min": -0.8369259939592454, "scale": 2.3110564808064434e-05, "dtype": "uint16"}}, {"name": "StatefulPartitionedCall/sequential/efficientnet-b2/block7b_project_conv/Conv2D_weights", "shape": [1, 1, 2112, 352], "dtype": "float32", "quantization": {"min": -0.7655930635521102, "scale": 2.608494254010597e-05, "dtype": "uint16"}}, {"name": "StatefulPartitionedCall/sequential/efficientnet-b2/block6d_project_conv/Conv2D_bn_offset", "shape": [208], "dtype": "float32", "quantization": {"min": -1.0864146335743252, "scale": 3.015473058660834e-05, "dtype": "uint16"}}, {"name": "StatefulPartitionedCall/sequential/efficientnet-b2/block6e_expand_conv/Conv2D_weights", "shape": [1, 1, 208, 1248], "dtype": "float32", "quantization": {"min": -0.06382455225711903, "scale": 2.1597371500107956e-06, "dtype": "uint16"}}, {"name": "StatefulPartitionedCall/sequential/efficientnet-b2/block6e_expand_conv/Conv2D_bn_offset", "shape": [1248], "dtype": "float32", "quantization": {"min": -5.967554861880589, "scale": 0.00013079285630738152, "dtype": "uint16"}}, {"name": "StatefulPartitionedCall/sequential/efficientnet-b2/block1a_se_reshape/Reshape/shape/3", "shape": [], "dtype": "int32"}, {"name": "Func/StatefulPartitionedCall/input/_12", "shape": [1, 1, 32, 8], "dtype": "float32", "quantization": {"min": -1.7294699992887614, "scale": 4.66466177389352e-05, "dtype": "uint16"}}, {"name": "Func/StatefulPartitionedCall/input/_13", "shape": [8], "dtype": "float32", "quantization": {"min": -0.18168510813762004, "scale": 4.103281723149646e-06, "dtype": "uint16"}}, {"name": "Func/StatefulPartitionedCall/input/_14", "shape": [1, 1, 8, 32], "dtype": "float32", "quantization": {"min": -0.5013887093943389, "scale": 3.0550128527561475e-05, "dtype": "uint16"}}, {"name": "Func/StatefulPartitionedCall/input/_15", "shape": [32], "dtype": "float32", "quantization": {"min": -0.3124367999768579, "scale": 2.4219906974950225e-05, "dtype": "uint16"}}, {"name": "StatefulPartitionedCall/sequential/efficientnet-b2/block1b_se_reshape/Reshape/shape/3", "shape": [], "dtype": "int32"}, {"name": "Func/StatefulPartitionedCall/input/_26", "shape": [1, 1, 16, 4], "dtype": "float32", "quantization": {"min": -3.2219097139415713, "scale": 6.379640246998339e-05, "dtype": "uint16"}}, {"name": "Func/StatefulPartitionedCall/input/_27", "shape": [4], "dtype": "float32", "quantization": {"min": -0.06327362362185394, "scale": 2.0588840173712726e-06, "dtype": "uint16"}}, {"name": "Func/StatefulPartitionedCall/input/_28", "shape": [1, 1, 4, 16], "dtype": "float32", "quantization": {"min": -1.8699393361022418, "scale": 6.566720522904347e-05, "dtype": "uint16"}}, {"name": "Func/StatefulPartitionedCall/input/_29", "shape": [16], "dtype": "float32", "quantization": {"min": -0.9460452130177915, "scale": 3.259639641035701e-05, "dtype": "uint16"}}, {"name": "StatefulPartitionedCall/sequential/efficientnet-b2/block2a_se_reshape/Reshape/shape/3", "shape": [], "dtype": "int32"}, {"name": "Func/StatefulPartitionedCall/input/_45", "shape": [1, 1, 96, 4], "dtype": "float32", "quantization": {"min": -1.75504037939348, "scale": 4.305685285919089e-05, "dtype": "uint16"}}, {"name": "Func/StatefulPartitionedCall/input/_46", "shape": [4], "dtype": "float32", "quantization": {"min": -0.048928936951000535, "scale": 2.4628246313484944e-06, "dtype": "uint16"}}, {"name": "Func/StatefulPartitionedCall/input/_47", "shape": [1, 1, 4, 96], "dtype": "float32", "quantization": {"min": -0.2881445385657232, "scale": 1.5060868626684257e-05, "dtype": "uint16"}}, {"name": "Func/StatefulPartitionedCall/input/_48", "shape": [96], "dtype": "float32", "quantization": {"min": -0.41306625798991503, "scale": 1.4747099535519993e-05, "dtype": "uint16"}}, {"name": "Func/StatefulPartitionedCall/input/_64", "shape": [1, 1, 144, 6], "dtype": "float32", "quantization": {"min": -1.5898348355899008, "scale": 5.6191808418686626e-05, "dtype": "uint16"}}, {"name": "Func/StatefulPartitionedCall/input/_65", "shape": [6], "dtype": "float32", "quantization": {"min": -0.0809531770285611, "scale": 3.293323177599003e-06, "dtype": "uint16"}}, {"name": "Func/StatefulPartitionedCall/input/_66", "shape": [1, 1, 6, 144], "dtype": "float32", "quantization": {"min": -2.4222279010397845, "scale": 8.213447835067595e-05, "dtype": "uint16"}}, {"name": "Func/StatefulPartitionedCall/input/_67", "shape": [144], "dtype": "float32", "quantization": {"min": -1.414685147325407, "scale": 8.798887593764193e-05, "dtype": "uint16"}}, {"name": "Func/StatefulPartitionedCall/input/_83", "shape": [1, 1, 144, 6], "dtype": "float32", "quantization": {"min": -1.812049757480221, "scale": 5.3703092806597745e-05, "dtype": "uint16"}}, {"name": "Func/StatefulPartitionedCall/input/_84", "shape": [6], "dtype": "float32", "quantization": {"min": -0.05220083078591049, "scale": 3.623799429775112e-06, "dtype": "uint16"}}, {"name": "Func/StatefulPartitionedCall/input/_85", "shape": [1, 1, 6, 144], "dtype": "float32", "quantization": {"min": -1.3723874938672638, "scale": 4.335041676250122e-05, "dtype": "uint16"}}, {"name": "Func/StatefulPartitionedCall/input/_86", "shape": [144], "dtype": "float32", "quantization": {"min": -1.746831892816755, "scale": 4.6338750903699364e-05, "dtype": "uint16"}}, {"name": "StatefulPartitionedCall/sequential/efficientnet-b2/block2c_se_reshape/Reshape/shape/3", "shape": [], "dtype": "int32"}, {"name": "Func/StatefulPartitionedCall/input/_102", "shape": [1, 1, 144, 6], "dtype": "float32", "quantization": {"min": -0.6676563679303386, "scale": 2.081028482156714e-05, "dtype": "uint16"}}, {"name": "Func/StatefulPartitionedCall/input/_103", "shape": [6], "dtype": "float32", "quantization": {"min": -0.07187779789350394, "scale": 1.2255796939964524e-06, "dtype": "uint16"}}, {"name": "Func/StatefulPartitionedCall/input/_104", "shape": [1, 1, 6, 144], "dtype": "float32", "quantization": {"min": -1.0628851558011247, "scale": 2.882791309468741e-05, "dtype": "uint16"}}, {"name": "Func/StatefulPartitionedCall/input/_105", "shape": [144], "dtype": "float32", "quantization": {"min": -1.5567709765663826, "scale": 4.906924845761781e-05, "dtype": "uint16"}}, {"name": "Func/StatefulPartitionedCall/input/_121", "shape": [1, 1, 288, 12], "dtype": "float32", "quantization": {"min": -1.3783706735089412, "scale": 4.639885123065073e-05, "dtype": "uint16"}}, {"name": "Func/StatefulPartitionedCall/input/_122", "shape": [12], "dtype": "float32", "quantization": {"min": -0.03221954848374874, "scale": 3.1894227364629524e-06, "dtype": "uint16"}}, {"name": "Func/StatefulPartitionedCall/input/_123", "shape": [1, 1, 12, 288], "dtype": "float32", "quantization": {"min": -1.8411502216885836, "scale": 5.478472406607503e-05, "dtype": "uint16"}}, {"name": "Func/StatefulPartitionedCall/input/_124", "shape": [288], "dtype": "float32", "quantization": {"min": -0.9937661954755778, "scale": 3.599819588044547e-05, "dtype": "uint16"}}, {"name": "Func/StatefulPartitionedCall/input/_140", "shape": [1, 1, 288, 12], "dtype": "float32", "quantization": {"min": -2.602248132346178, "scale": 6.286990245092358e-05, "dtype": "uint16"}}, {"name": "Func/StatefulPartitionedCall/input/_141", "shape": [12], "dtype": "float32", "quantization": {"min": -0.06209211880276512, "scale": 2.838886192518522e-06, "dtype": "uint16"}}, {"name": "Func/StatefulPartitionedCall/input/_142", "shape": [1, 1, 12, 288], "dtype": "float32", "quantization": {"min": -1.875560737087296, "scale": 5.351711285417155e-05, "dtype": "uint16"}}, {"name": "Func/StatefulPartitionedCall/input/_143", "shape": [288], "dtype": "float32", "quantization": {"min": -1.3192665575297697, "scale": 4.239969652996207e-05, "dtype": "uint16"}}, {"name": "StatefulPartitionedCall/sequential/efficientnet-b2/block3c_se_reshape/Reshape/shape/3", "shape": [], "dtype": "int32"}, {"name": "Func/StatefulPartitionedCall/input/_159", "shape": [1, 1, 288, 12], "dtype": "float32", "quantization": {"min": -0.6112278040935911, "scale": 1.350063621711338e-05, "dtype": "uint16"}}, {"name": "Func/StatefulPartitionedCall/input/_160", "shape": [12], "dtype": "float32", "quantization": {"min": -0.047848109155893326, "scale": 3.426232792796901e-07, "dtype": "uint16"}}, {"name": "Func/StatefulPartitionedCall/input/_161", "shape": [1, 1, 12, 288], "dtype": "float32", "quantization": {"min": -0.4604165657348615, "scale": 1.1429266352270418e-05, "dtype": "uint16"}}, {"name": "Func/StatefulPartitionedCall/input/_162", "shape": [288], "dtype": "float32", "quantization": {"min": -0.7372121912014059, "scale": 3.405766382709997e-05, "dtype": "uint16"}}, {"name": "Func/StatefulPartitionedCall/input/_178", "shape": [1, 1, 528, 22], "dtype": "float32", "quantization": {"min": -1.8181350596902244, "scale": 5.2955904223057246e-05, "dtype": "uint16"}}, {"name": "Func/StatefulPartitionedCall/input/_179", "shape": [22], "dtype": "float32", "quantization": {"min": -0.06735923408670703, "scale": 3.362581573817244e-06, "dtype": "uint16"}}, {"name": "Func/StatefulPartitionedCall/input/_180", "shape": [1, 1, 22, 528], "dtype": "float32", "quantization": {"min": -1.9777918847427403, "scale": 5.769016377629555e-05, "dtype": "uint16"}}, {"name": "Func/StatefulPartitionedCall/input/_181", "shape": [528], "dtype": "float32", "quantization": {"min": -0.866766493644432, "scale": 2.8559027797180626e-05, "dtype": "uint16"}}, {"name": "Func/StatefulPartitionedCall/input/_197", "shape": [1, 1, 528, 22], "dtype": "float32", "quantization": {"min": -2.540292494366332, "scale": 7.186930612703933e-05, "dtype": "uint16"}}, {"name": "Func/StatefulPartitionedCall/input/_198", "shape": [22], "dtype": "float32", "quantization": {"min": -0.10591080441185327, "scale": 4.876412560976715e-06, "dtype": "uint16"}}, {"name": "Func/StatefulPartitionedCall/input/_199", "shape": [1, 1, 22, 528], "dtype": "float32", "quantization": {"min": -1.7615306238110555, "scale": 5.2734122374896885e-05, "dtype": "uint16"}}, {"name": "Func/StatefulPartitionedCall/input/_200", "shape": [528], "dtype": "float32", "quantization": {"min": -0.6422974573744601, "scale": 2.3078490078490178e-05, "dtype": "uint16"}}, {"name": "Func/StatefulPartitionedCall/input/_216", "shape": [1, 1, 528, 22], "dtype": "float32", "quantization": {"min": -2.423984050285064, "scale": 6.029511094684503e-05, "dtype": "uint16"}}, {"name": "Func/StatefulPartitionedCall/input/_217", "shape": [22], "dtype": "float32", "quantization": {"min": -0.2778363014657701, "scale": 8.045530404707673e-06, "dtype": "uint16"}}, {"name": "Func/StatefulPartitionedCall/input/_218", "shape": [1, 1, 22, 528], "dtype": "float32", "quantization": {"min": -2.0787422550382155, "scale": 6.518885646758076e-05, "dtype": "uint16"}}, {"name": "Func/StatefulPartitionedCall/input/_219", "shape": [528], "dtype": "float32", "quantization": {"min": -0.5901686519600392, "scale": 2.398669533246786e-05, "dtype": "uint16"}}, {"name": "StatefulPartitionedCall/sequential/efficientnet-b2/block4d_se_reshape/Reshape/shape/3", "shape": [], "dtype": "int32"}, {"name": "Func/StatefulPartitionedCall/input/_235", "shape": [1, 1, 528, 22], "dtype": "float32", "quantization": {"min": -0.44307782499811293, "scale": 1.0357367516728136e-05, "dtype": "uint16"}}, {"name": "Func/StatefulPartitionedCall/input/_236", "shape": [22], "dtype": "float32", "quantization": {"min": -0.05697183310985565, "scale": 4.846557487091392e-07, "dtype": "uint16"}}, {"name": "Func/StatefulPartitionedCall/input/_237", "shape": [1, 1, 22, 528], "dtype": "float32", "quantization": {"min": -0.4711398877622407, "scale": 1.5082267999303434e-05, "dtype": "uint16"}}, {"name": "Func/StatefulPartitionedCall/input/_238", "shape": [528], "dtype": "float32", "quantization": {"min": -2.5381994091001046, "scale": 5.9677405461772425e-05, "dtype": "uint16"}}, {"name": "Func/StatefulPartitionedCall/input/_254", "shape": [1, 1, 720, 30], "dtype": "float32", "quantization": {"min": -1.9151861203128835, "scale": 5.4133415877014146e-05, "dtype": "uint16"}}, {"name": "Func/StatefulPartitionedCall/input/_255", "shape": [30], "dtype": "float32", "quantization": {"min": -0.18079348539059156, "scale": 4.858603246099045e-06, "dtype": "uint16"}}, {"name": "Func/StatefulPartitionedCall/input/_256", "shape": [1, 1, 30, 720], "dtype": "float32", "quantization": {"min": -1.9738546272359907, "scale": 6.032563041674788e-05, "dtype": "uint16"}}, {"name": "Func/StatefulPartitionedCall/input/_257", "shape": [720], "dtype": "float32", "quantization": {"min": -0.8969808345174974, "scale": 2.8536278259074778e-05, "dtype": "uint16"}}, {"name": "Func/StatefulPartitionedCall/input/_273", "shape": [1, 1, 720, 30], "dtype": "float32", "quantization": {"min": -1.8661581298311232, "scale": 6.167690550388747e-05, "dtype": "uint16"}}, {"name": "Func/StatefulPartitionedCall/input/_274", "shape": [30], "dtype": "float32", "quantization": {"min": -0.25324695558344973, "scale": 6.23208375783664e-06, "dtype": "uint16"}}, {"name": "Func/StatefulPartitionedCall/input/_275", "shape": [1, 1, 30, 720], "dtype": "float32", "quantization": {"min": -2.8777315949269524, "scale": 7.849143809636289e-05, "dtype": "uint16"}}, {"name": "Func/StatefulPartitionedCall/input/_276", "shape": [720], "dtype": "float32", "quantization": {"min": -0.9017751620437384, "scale": 3.289109538037489e-05, "dtype": "uint16"}}, {"name": "Func/StatefulPartitionedCall/input/_292", "shape": [1, 1, 720, 30], "dtype": "float32", "quantization": {"min": -1.8518200802077251, "scale": 5.052990832262948e-05, "dtype": "uint16"}}, {"name": "Func/StatefulPartitionedCall/input/_293", "shape": [30], "dtype": "float32", "quantization": {"min": -0.223604081153524, "scale": 5.182979026320616e-06, "dtype": "uint16"}}, {"name": "Func/StatefulPartitionedCall/input/_294", "shape": [1, 1, 30, 720], "dtype": "float32", "quantization": {"min": -1.6705573232730355, "scale": 5.364494792309289e-05, "dtype": "uint16"}}, {"name": "Func/StatefulPartitionedCall/input/_295", "shape": [720], "dtype": "float32", "quantization": {"min": -0.7732171553391073, "scale": 3.199078011332674e-05, "dtype": "uint16"}}, {"name": "StatefulPartitionedCall/sequential/efficientnet-b2/block5d_se_reshape/Reshape/shape/3", "shape": [], "dtype": "int32"}, {"name": "Func/StatefulPartitionedCall/input/_311", "shape": [1, 1, 720, 30], "dtype": "float32", "quantization": {"min": -0.09364398086681294, "scale": 2.8967730029638676e-06, "dtype": "uint16"}}, {"name": "Func/StatefulPartitionedCall/input/_312", "shape": [30], "dtype": "float32", "quantization": {"min": -0.020862843841314316, "scale": 2.515256209332364e-07, "dtype": "uint16"}}, {"name": "Func/StatefulPartitionedCall/input/_313", "shape": [1, 1, 30, 720], "dtype": "float32", "quantization": {"min": -0.10078841776753977, "scale": 3.600100648933411e-06, "dtype": "uint16"}}, {"name": "Func/StatefulPartitionedCall/input/_314", "shape": [720], "dtype": "float32", "quantization": {"min": -3.1868230689060337, "scale": 7.040680177862788e-05, "dtype": "uint16"}}, {"name": "Func/StatefulPartitionedCall/input/_330", "shape": [1, 1, 1248, 52], "dtype": "float32", "quantization": {"min": -1.632381460484209, "scale": 4.9469102990611824e-05, "dtype": "uint16"}}, {"name": "Func/StatefulPartitionedCall/input/_331", "shape": [52], "dtype": "float32", "quantization": {"min": -0.4530996799694098, "scale": 9.024272141835324e-06, "dtype": "uint16"}}, {"name": "Func/StatefulPartitionedCall/input/_332", "shape": [1, 1, 52, 1248], "dtype": "float32", "quantization": {"min": -1.7665039451242157, "scale": 5.1945303764643035e-05, "dtype": "uint16"}}, {"name": "Func/StatefulPartitionedCall/input/_333", "shape": [1248], "dtype": "float32", "quantization": {"min": -1.0677534372571713, "scale": 3.2690999854790624e-05, "dtype": "uint16"}}, {"name": "Func/StatefulPartitionedCall/input/_349", "shape": [1, 1, 1248, 52], "dtype": "float32", "quantization": {"min": -1.9931806139208554, "scale": 5.374337676061303e-05, "dtype": "uint16"}}, {"name": "Func/StatefulPartitionedCall/input/_350", "shape": [52], "dtype": "float32", "quantization": {"min": -0.4586066553776312, "scale": 1.0602886629311983e-05, "dtype": "uint16"}}, {"name": "Func/StatefulPartitionedCall/input/_351", "shape": [1, 1, 52, 1248], "dtype": "float32", "quantization": {"min": -1.6616521783157736, "scale": 5.1452304638977355e-05, "dtype": "uint16"}}, {"name": "Func/StatefulPartitionedCall/input/_352", "shape": [1248], "dtype": "float32", "quantization": {"min": -0.9704267443449699, "scale": 3.2368057914845065e-05, "dtype": "uint16"}}, {"name": "Func/StatefulPartitionedCall/input/_368", "shape": [1, 1, 1248, 52], "dtype": "float32", "quantization": {"min": -1.6132591950645105, "scale": 5.258684383155716e-05, "dtype": "uint16"}}, {"name": "Func/StatefulPartitionedCall/input/_369", "shape": [52], "dtype": "float32", "quantization": {"min": -0.48742053319398865, "scale": 1.1206615468662083e-05, "dtype": "uint16"}}, {"name": "Func/StatefulPartitionedCall/input/_370", "shape": [1, 1, 52, 1248], "dtype": "float32", "quantization": {"min": -1.6805688760860331, "scale": 5.0042249831344224e-05, "dtype": "uint16"}}, {"name": "Func/StatefulPartitionedCall/input/_371", "shape": [1248], "dtype": "float32", "quantization": {"min": -0.8439038201201341, "scale": 3.046804174020269e-05, "dtype": "uint16"}}, {"name": "Func/StatefulPartitionedCall/input/_387", "shape": [1, 1, 1248, 52], "dtype": "float32", "quantization": {"min": -1.6023940431905246, "scale": 5.087288218904453e-05, "dtype": "uint16"}}, {"name": "Func/StatefulPartitionedCall/input/_388", "shape": [52], "dtype": "float32", "quantization": {"min": -0.48033929961746524, "scale": 1.1670618096541748e-05, "dtype": "uint16"}}, {"name": "Func/StatefulPartitionedCall/input/_389", "shape": [1, 1, 52, 1248], "dtype": "float32", "quantization": {"min": -1.5878001525471739, "scale": 4.8518002583486334e-05, "dtype": "uint16"}}, {"name": "Func/StatefulPartitionedCall/input/_390", "shape": [1248], "dtype": "float32", "quantization": {"min": -0.9533052118253661, "scale": 3.4166196395432806e-05, "dtype": "uint16"}}, {"name": "StatefulPartitionedCall/sequential/efficientnet-b2/block6e_se_reshape/Reshape/shape/3", "shape": [], "dtype": "int32"}, {"name": "Func/StatefulPartitionedCall/input/_406", "shape": [1, 1, 1248, 52], "dtype": "float32", "quantization": {"min": -2.876273331584306, "scale": 8.093059458593996e-05, "dtype": "uint16"}}, {"name": "Func/StatefulPartitionedCall/input/_407", "shape": [52], "dtype": "float32", "quantization": {"min": -0.713256915815091, "scale": 2.8318454592253583e-05, "dtype": "uint16"}}, {"name": "Func/StatefulPartitionedCall/input/_408", "shape": [1, 1, 52, 1248], "dtype": "float32", "quantization": {"min": -1.8631522527955766, "scale": 6.682515881050093e-05, "dtype": "uint16"}}, {"name": "Func/StatefulPartitionedCall/input/_409", "shape": [1248], "dtype": "float32", "quantization": {"min": -4.513853562508494, "scale": 0.0001509448088051262, "dtype": "uint16"}}, {"name": "StatefulPartitionedCall/sequential/efficientnet-b2/block7b_se_reshape/strided_slice/stack", "shape": [1], "dtype": "int32"}, {"name": "StatefulPartitionedCall/sequential/efficientnet-b2/block7b_se_reshape/strided_slice/stack_1", "shape": [1], "dtype": "int32"}, {"name": "StatefulPartitionedCall/sequential/efficientnet-b2/block7b_se_reshape/Reshape/shape/1", "shape": [], "dtype": "int32"}, {"name": "StatefulPartitionedCall/sequential/efficientnet-b2/block7b_se_reshape/Reshape/shape/3", "shape": [], "dtype": "int32"}, {"name": "Func/StatefulPartitionedCall/input/_425", "shape": [1, 1, 2112, 88], "dtype": "float32", "quantization": {"min": -1.5896749811659254, "scale": 5.3872677957364966e-05, "dtype": "uint16"}}, {"name": "Func/StatefulPartitionedCall/input/_426", "shape": [88], "dtype": "float32", "quantization": {"min": -0.6437324014400885, "scale": 2.9932688618994164e-05, "dtype": "uint16"}}, {"name": "Func/StatefulPartitionedCall/input/_427", "shape": [1, 1, 88, 2112], "dtype": "float32", "quantization": {"min": -1.9372462334217775, "scale": 5.799964771778622e-05, "dtype": "uint16"}}, {"name": "Func/StatefulPartitionedCall/input/_428", "shape": [2112], "dtype": "float32", "quantization": {"min": -2.013775267953539, "scale": 6.249108667039686e-05, "dtype": "uint16"}}, {"name": "StatefulPartitionedCall/sequential/efficientnet-b2/block7b_se_squeeze/Mean/reduction_indices", "shape": [2], "dtype": "int32"}, {"name": "Func/StatefulPartitionedCall/input/_439", "shape": [1408, 894], "dtype": "float32", "quantization": {"min": -3.5022091478307176, "scale": 7.70105580366057e-05, "dtype": "uint16"}}, {"name": "Func/StatefulPartitionedCall/input/_440", "shape": [894], "dtype": "float32", "quantization": {"min": -1.6854815643257721, "scale": 3.8120992543668796e-05, "dtype": "uint16"}}]}]}